…
| │    │    └─(1)ModuleDict      | --               | --             | 24,960   |
| │    └─(batch_norms)ModuleList | --               | --             | 256      |
| │    │    └─(0)ModuleDict      | --               | --             | 128      |
| │    │    └─(1)ModuleDict      | --               | --             | 128      |
| │    └─(emlps)ModuleList       | --               | --             | 66,048   |
| │    │    └─(0)ModuleList      | --               | --             | 33,024   |
| │    │    └─(1)ModuleList      | --               | --             | 33,024   |
| ├─(mlp)Sequential              | [699873, 192]    | [699873, 2]    | 10,977   |
| │    └─(0)Linear               | [699873, 192]    | [699873, 50]   | 9,650    |
| │    └─(1)ReLU                 | [699873, 50]     | [699873, 50]   | --       |
| │    └─(2)Dropout              | [699873, 50]     | [699873, 50]   | --       |
| │    └─(3)Linear               | [699873, 50]     | [699873, 25]   | 1,275    |
| │    └─(4)ReLU                 | [699873, 25]     | [699873, 25]   | --       |
| │    └─(5)Dropout              | [699873, 25]     | [699873, 25]   | --       |
| │    └─(6)Linear               | [699873, 25]     | [699873, 2]    | 52       |
+--------------------------------+------------------+----------------+----------+
2025-06-05 17:08:25,404 [INFO ] ---------- Epoch 0 ----------
2025-06-05 17:38:01,786 [INFO ] Random seed set as 193078
2025-06-05 17:38:09,496 [INFO ] Retrieving data
2025-06-05 17:38:12,856 [INFO ] Available Edge Features: ['EdgeID', 'from_id', 'to_id', 'Timestamp', 'Amount Sent', 'Sent Currency', 'Amount Received', 'Received Currency', 'Payment Format', 'Is Laundering']
…
| │    │    └─(1)ModuleDict      | --               | --             | 24,320   |
| │    └─(batch_norms)ModuleList | --               | --             | 80       |
| │    │    └─(0)ModuleDict      | --               | --             | 40       |
| │    │    └─(1)ModuleDict      | --               | --             | 40       |
| │    └─(emlps)ModuleList       | --               | --             | 6,560    |
| │    │    └─(0)ModuleList      | --               | --             | 3,280    |
| │    │    └─(1)ModuleList      | --               | --             | 3,280    |
| ├─(mlp)Sequential              | [705101, 60]     | [705101, 2]    | 4,377    |
| │    └─(0)Linear               | [705101, 60]     | [705101, 50]   | 3,050    |
| │    └─(1)ReLU                 | [705101, 50]     | [705101, 50]   | --       |
| │    └─(2)Dropout              | [705101, 50]     | [705101, 50]   | --       |
| │    └─(3)Linear               | [705101, 50]     | [705101, 25]   | 1,275    |
| │    └─(4)ReLU                 | [705101, 25]     | [705101, 25]   | --       |
| │    └─(5)Dropout              | [705101, 25]     | [705101, 25]   | --       |
| │    └─(6)Linear               | [705101, 25]     | [705101, 2]    | 52       |
+--------------------------------+------------------+----------------+----------+
2025-06-05 22:33:59,715 [INFO ] ---------- Epoch 0 ----------
2025-06-05 22:37:47,170 [INFO ] Random seed set as 205014
2025-06-05 22:37:49,117 [INFO ] Retrieving data
2025-06-05 22:37:52,140 [INFO ] Available Edge Features: ['EdgeID', 'from_id', 'to_id', 'Timestamp', 'Amount Sent', 'Sent Currency', 'Amount Received', 'Received Currency', 'Payment Format', 'Is Laundering']
…
| │    │    └─(1)ModuleDict      | --               | --             | 24,320   |
| │    └─(batch_norms)ModuleList | --               | --             | 80       |
| │    │    └─(0)ModuleDict      | --               | --             | 40       |
| │    │    └─(1)ModuleDict      | --               | --             | 40       |
| │    └─(emlps)ModuleList       | --               | --             | 6,560    |
| │    │    └─(0)ModuleList      | --               | --             | 3,280    |
| │    │    └─(1)ModuleList      | --               | --             | 3,280    |
| ├─(mlp)Sequential              | [703021, 60]     | [703021, 2]    | 4,377    |
| │    └─(0)Linear               | [703021, 60]     | [703021, 50]   | 3,050    |
| │    └─(1)ReLU                 | [703021, 50]     | [703021, 50]   | --       |
| │    └─(2)Dropout              | [703021, 50]     | [703021, 50]   | --       |
| │    └─(3)Linear               | [703021, 50]     | [703021, 25]   | 1,275    |
| │    └─(4)ReLU                 | [703021, 25]     | [703021, 25]   | --       |
| │    └─(5)Dropout              | [703021, 25]     | [703021, 25]   | --       |
| │    └─(6)Linear               | [703021, 25]     | [703021, 2]    | 52       |
+--------------------------------+------------------+----------------+----------+
2025-06-05 22:46:46,695 [INFO ] Random seed set as 188152
2025-06-05 22:46:48,632 [INFO ] Retrieving data
2025-06-05 22:46:51,672 [INFO ] Available Edge Features: ['EdgeID', 'from_id', 'to_id', 'Timestamp', 'Amount Sent', 'Sent Currency', 'Amount Received', 'Received Currency', 'Payment Format', 'Is Laundering']
…
| │    │    └─(1)ModuleDict      | --               | --             | 24,320   |
| │    └─(batch_norms)ModuleList | --               | --             | 80       |
| │    │    └─(0)ModuleDict      | --               | --             | 40       |
| │    │    └─(1)ModuleDict      | --               | --             | 40       |
| │    └─(emlps)ModuleList       | --               | --             | 6,560    |
| │    │    └─(0)ModuleList      | --               | --             | 3,280    |
| │    │    └─(1)ModuleList      | --               | --             | 3,280    |
| ├─(mlp)Sequential              | [698068, 60]     | [698068, 2]    | 4,377    |
| │    └─(0)Linear               | [698068, 60]     | [698068, 50]   | 3,050    |
| │    └─(1)ReLU                 | [698068, 50]     | [698068, 50]   | --       |
| │    └─(2)Dropout              | [698068, 50]     | [698068, 50]   | --       |
| │    └─(3)Linear               | [698068, 50]     | [698068, 25]   | 1,275    |
| │    └─(4)ReLU                 | [698068, 25]     | [698068, 25]   | --       |
| │    └─(5)Dropout              | [698068, 25]     | [698068, 25]   | --       |
| │    └─(6)Linear               | [698068, 25]     | [698068, 2]    | 52       |
+--------------------------------+------------------+----------------+----------+
2025-06-05 22:55:25,518 [INFO ] Val F1: 0.6667
2025-06-05 22:55:25,519 [INFO ] Val Precision: 0.8085
2025-06-05 22:55:25,519 [INFO ] Val Recall: 0.5671
2025-06-05 22:55:25,519 [INFO ] Val Auc: 0.6161
2025-06-05 22:55:25,520 [INFO ] Test F1: 0.7540
2025-06-05 22:55:25,520 [INFO ] Test Precision: 0.8044
2025-06-05 22:55:25,520 [INFO ] Test Recall: 0.7095
…
| │    │    └─(1)ModuleDict      | --               | --             | 24,960   |
| │    └─(batch_norms)ModuleList | --               | --             | 256      |
| │    │    └─(0)ModuleDict      | --               | --             | 128      |
| │    │    └─(1)ModuleDict      | --               | --             | 128      |
| │    └─(emlps)ModuleList       | --               | --             | 66,048   |
| │    │    └─(0)ModuleList      | --               | --             | 33,024   |
| │    │    └─(1)ModuleList      | --               | --             | 33,024   |
| ├─(mlp)Sequential              | [704601, 192]    | [704601, 2]    | 10,977   |
| │    └─(0)Linear               | [704601, 192]    | [704601, 50]   | 9,650    |
| │    └─(1)ReLU                 | [704601, 50]     | [704601, 50]   | --       |
| │    └─(2)Dropout              | [704601, 50]     | [704601, 50]   | --       |
| │    └─(3)Linear               | [704601, 50]     | [704601, 25]   | 1,275    |
| │    └─(4)ReLU                 | [704601, 25]     | [704601, 25]   | --       |
| │    └─(5)Dropout              | [704601, 25]     | [704601, 25]   | --       |
| │    └─(6)Linear               | [704601, 25]     | [704601, 2]    | 52       |
+--------------------------------+------------------+----------------+----------+
2025-06-07 09:23:10,796 [INFO ] ---------- Epoch 0 ----------
2025-06-07 09:27:08,629 [INFO ] Train F1: 0.0000
2025-06-07 09:27:08,630 [INFO ] Train Precision: 0.0000
2025-06-07 09:27:08,630 [INFO ] Train Recall: 0.0000
2025-06-07 09:27:08,631 [INFO ] Train Auc: 0.0189
2025-06-07 09:29:57,027 [INFO ] Val F1: 0.0000
…
| │    │    └─(1)ModuleDict      | --               | --             | 24,960   |
| │    └─(batch_norms)ModuleList | --               | --             | 256      |
| │    │    └─(0)ModuleDict      | --               | --             | 128      |
| │    │    └─(1)ModuleDict      | --               | --             | 128      |
| │    └─(emlps)ModuleList       | --               | --             | 66,048   |
| │    │    └─(0)ModuleList      | --               | --             | 33,024   |
| │    │    └─(1)ModuleList      | --               | --             | 33,024   |
| ├─(mlp)Sequential              | [701333, 192]    | [701333, 2]    | 10,977   |
| │    └─(0)Linear               | [701333, 192]    | [701333, 50]   | 9,650    |
| │    └─(1)ReLU                 | [701333, 50]     | [701333, 50]   | --       |
| │    └─(2)Dropout              | [701333, 50]     | [701333, 50]   | --       |
| │    └─(3)Linear               | [701333, 50]     | [701333, 25]   | 1,275    |
| │    └─(4)ReLU                 | [701333, 25]     | [701333, 25]   | --       |
| │    └─(5)Dropout              | [701333, 25]     | [701333, 25]   | --       |
| │    └─(6)Linear               | [701333, 25]     | [701333, 2]    | 52       |
+--------------------------------+------------------+----------------+----------+
2025-06-07 14:37:10,380 [INFO ] ---------- Epoch 0 ----------
2025-06-07 14:40:52,333 [INFO ] Train F1: 0.0432
2025-06-07 14:40:52,334 [INFO ] Train Precision: 0.2921
2025-06-07 14:40:52,334 [INFO ] Train Recall: 0.0233
2025-06-07 14:40:52,334 [INFO ] Train Auc: 0.0297
2025-06-07 14:43:36,952 [INFO ] Val F1: 0.2896
…
| │    │    └─(1)ModuleDict      | --               | --             | 24,320   |
| │    └─(batch_norms)ModuleList | --               | --             | 80       |
| │    │    └─(0)ModuleDict      | --               | --             | 40       |
| │    │    └─(1)ModuleDict      | --               | --             | 40       |
| │    └─(emlps)ModuleList       | --               | --             | 6,560    |
| │    │    └─(0)ModuleList      | --               | --             | 3,280    |
| │    │    └─(1)ModuleList      | --               | --             | 3,280    |
| ├─(mlp)Sequential              | [691838, 60]     | [691838, 2]    | 4,377    |
| │    └─(0)Linear               | [691838, 60]     | [691838, 50]   | 3,050    |
| │    └─(1)ReLU                 | [691838, 50]     | [691838, 50]   | --       |
| │    └─(2)Dropout              | [691838, 50]     | [691838, 50]   | --       |
| │    └─(3)Linear               | [691838, 50]     | [691838, 25]   | 1,275    |
| │    └─(4)ReLU                 | [691838, 25]     | [691838, 25]   | --       |
| │    └─(5)Dropout              | [691838, 25]     | [691838, 25]   | --       |
| │    └─(6)Linear               | [691838, 25]     | [691838, 2]    | 52       |
+--------------------------------+------------------+----------------+----------+
2025-06-08 17:01:06,502 [INFO ] Val F1: 0.6674
2025-06-08 17:01:06,555 [INFO ] Val Precision: 0.8099
2025-06-08 17:01:06,555 [INFO ] Val Recall: 0.5676
2025-06-08 17:01:06,555 [INFO ] Val Auc: 0.6154
2025-06-08 17:01:06,555 [INFO ] Test F1: 0.7556
2025-06-08 17:01:06,556 [INFO ] Test Precision: 0.8073
2025-06-08 17:01:06,556 [INFO ] Test Recall: 0.7101
…
| │    │    └─(1)ModuleDict      | --            | --             | 24,320   |
| │    └─(batch_norms)ModuleList | --            | --             | 80       |
| │    │    └─(0)ModuleDict      | --            | --             | 40       |
| │    │    └─(1)ModuleDict      | --            | --             | 40       |
| │    └─(emlps)ModuleList       | --            | --             | 6,560    |
| │    │    └─(0)ModuleList      | --            | --             | 3,280    |
| │    │    └─(1)ModuleList      | --            | --             | 3,280    |
| ├─(mlp)Sequential              | [31, 60]      | [31, 2]        | 4,377    |
| │    └─(0)Linear               | [31, 60]      | [31, 50]       | 3,050    |
| │    └─(1)ReLU                 | [31, 50]      | [31, 50]       | --       |
| │    └─(2)Dropout              | [31, 50]      | [31, 50]       | --       |
| │    └─(3)Linear               | [31, 50]      | [31, 25]       | 1,275    |
| │    └─(4)ReLU                 | [31, 25]      | [31, 25]       | --       |
| │    └─(5)Dropout              | [31, 25]      | [31, 25]       | --       |
| │    └─(6)Linear               | [31, 25]      | [31, 2]        | 52       |
+--------------------------------+---------------+----------------+----------+
2025-06-08 17:14:59,649 [INFO ] Val F1: 0.0000
2025-06-08 17:14:59,650 [INFO ] Val Precision: 0.0000
2025-06-08 17:14:59,650 [INFO ] Val Recall: 0.0000
2025-06-08 17:14:59,650 [INFO ] Val Auc: 1.0000
2025-06-08 17:14:59,651 [INFO ] Test F1: 0.0000
2025-06-08 17:14:59,651 [INFO ] Test Precision: 0.0000
2025-06-08 17:14:59,651 [INFO ] Test Recall: 0.0000
…
| │    │    └─(1)ModuleDict      | --               | --             | 24,960   |
| │    └─(batch_norms)ModuleList | --               | --             | 256      |
| │    │    └─(0)ModuleDict      | --               | --             | 128      |
| │    │    └─(1)ModuleDict      | --               | --             | 128      |
| │    └─(emlps)ModuleList       | --               | --             | 66,048   |
| │    │    └─(0)ModuleList      | --               | --             | 33,024   |
| │    │    └─(1)ModuleList      | --               | --             | 33,024   |
| ├─(mlp)Sequential              | [695813, 192]    | [695813, 2]    | 10,977   |
| │    └─(0)Linear               | [695813, 192]    | [695813, 50]   | 9,650    |
| │    └─(1)ReLU                 | [695813, 50]     | [695813, 50]   | --       |
| │    └─(2)Dropout              | [695813, 50]     | [695813, 50]   | --       |
| │    └─(3)Linear               | [695813, 50]     | [695813, 25]   | 1,275    |
| │    └─(4)ReLU                 | [695813, 25]     | [695813, 25]   | --       |
| │    └─(5)Dropout              | [695813, 25]     | [695813, 25]   | --       |
| │    └─(6)Linear               | [695813, 25]     | [695813, 2]    | 52       |
+--------------------------------+------------------+----------------+----------+
2025-06-08 17:50:24,945 [INFO ] Val F1: 0.6492
2025-06-08 17:50:24,955 [INFO ] Val Precision: 0.7936
2025-06-08 17:50:24,956 [INFO ] Val Recall: 0.5492
2025-06-08 17:50:24,956 [INFO ] Val Auc: 0.5675
2025-06-08 17:50:24,956 [INFO ] Test F1: 0.7331
2025-06-08 17:50:24,956 [INFO ] Test Precision: 0.7528
2025-06-08 17:50:24,956 [INFO ] Test Recall: 0.7145
…
| │    │    └─(1)ModuleDict      | --               | --             | 24,320   |
| │    └─(batch_norms)ModuleList | --               | --             | 80       |
| │    │    └─(0)ModuleDict      | --               | --             | 40       |
| │    │    └─(1)ModuleDict      | --               | --             | 40       |
| │    └─(emlps)ModuleList       | --               | --             | 6,560    |
| │    │    └─(0)ModuleList      | --               | --             | 3,280    |
| │    │    └─(1)ModuleList      | --               | --             | 3,280    |
| ├─(mlp)Sequential              | [703232, 60]     | [703232, 2]    | 4,377    |
| │    └─(0)Linear               | [703232, 60]     | [703232, 50]   | 3,050    |
| │    └─(1)ReLU                 | [703232, 50]     | [703232, 50]   | --       |
| │    └─(2)Dropout              | [703232, 50]     | [703232, 50]   | --       |
| │    └─(3)Linear               | [703232, 50]     | [703232, 25]   | 1,275    |
| │    └─(4)ReLU                 | [703232, 25]     | [703232, 25]   | --       |
| │    └─(5)Dropout              | [703232, 25]     | [703232, 25]   | --       |
| │    └─(6)Linear               | [703232, 25]     | [703232, 2]    | 52       |
+--------------------------------+------------------+----------------+----------+
2025-06-08 18:06:17,416 [INFO ] Val F1: 0.6655
2025-06-08 18:06:17,436 [INFO ] Val Precision: 0.8102
2025-06-08 18:06:17,436 [INFO ] Val Recall: 0.5647
2025-06-08 18:06:17,436 [INFO ] Val Auc: 0.6130
2025-06-08 18:06:17,437 [INFO ] Test F1: 0.7532
2025-06-08 18:06:17,437 [INFO ] Test Precision: 0.8075
2025-06-08 18:06:17,437 [INFO ] Test Recall: 0.7058
…
| │    │    └─(1)ModuleDict      | --               | --             | 24,960   |
| │    └─(batch_norms)ModuleList | --               | --             | 256      |
| │    │    └─(0)ModuleDict      | --               | --             | 128      |
| │    │    └─(1)ModuleDict      | --               | --             | 128      |
| │    └─(emlps)ModuleList       | --               | --             | 66,048   |
| │    │    └─(0)ModuleList      | --               | --             | 33,024   |
| │    │    └─(1)ModuleList      | --               | --             | 33,024   |
| ├─(mlp)Sequential              | [695834, 192]    | [695834, 2]    | 10,977   |
| │    └─(0)Linear               | [695834, 192]    | [695834, 50]   | 9,650    |
| │    └─(1)ReLU                 | [695834, 50]     | [695834, 50]   | --       |
| │    └─(2)Dropout              | [695834, 50]     | [695834, 50]   | --       |
| │    └─(3)Linear               | [695834, 50]     | [695834, 25]   | 1,275    |
| │    └─(4)ReLU                 | [695834, 25]     | [695834, 25]   | --       |
| │    └─(5)Dropout              | [695834, 25]     | [695834, 25]   | --       |
| │    └─(6)Linear               | [695834, 25]     | [695834, 2]    | 52       |
+--------------------------------+------------------+----------------+----------+
2025-06-08 21:32:44,374 [INFO ] Val F1: 0.2612
2025-06-08 21:32:44,391 [INFO ] Val Precision: 0.2779
2025-06-08 21:32:44,391 [INFO ] Val Recall: 0.2464
2025-06-08 21:32:44,391 [INFO ] Val Auc: 0.1973
2025-06-08 21:32:44,391 [INFO ] Test F1: 0.3504
2025-06-08 21:32:44,392 [INFO ] Test Precision: 0.3153
2025-06-08 21:32:44,392 [INFO ] Test Recall: 0.3942
…
| │    │    └─(1)ModuleDict      | --               | --             | 24,960   |
| │    └─(batch_norms)ModuleList | --               | --             | 256      |
| │    │    └─(0)ModuleDict      | --               | --             | 128      |
| │    │    └─(1)ModuleDict      | --               | --             | 128      |
| │    └─(emlps)ModuleList       | --               | --             | 66,048   |
| │    │    └─(0)ModuleList      | --               | --             | 33,024   |
| │    │    └─(1)ModuleList      | --               | --             | 33,024   |
| ├─(mlp)Sequential              | [703114, 192]    | [703114, 2]    | 10,977   |
| │    └─(0)Linear               | [703114, 192]    | [703114, 50]   | 9,650    |
| │    └─(1)ReLU                 | [703114, 50]     | [703114, 50]   | --       |
| │    └─(2)Dropout              | [703114, 50]     | [703114, 50]   | --       |
| │    └─(3)Linear               | [703114, 50]     | [703114, 25]   | 1,275    |
| │    └─(4)ReLU                 | [703114, 25]     | [703114, 25]   | --       |
| │    └─(5)Dropout              | [703114, 25]     | [703114, 25]   | --       |
| │    └─(6)Linear               | [703114, 25]     | [703114, 2]    | 52       |
+--------------------------------+------------------+----------------+----------+
2025-06-08 22:15:22,563 [INFO ] Val F1: 0.2626
2025-06-08 22:15:22,573 [INFO ] Val Precision: 0.1792
2025-06-08 22:15:22,573 [INFO ] Val Recall: 0.4913
2025-06-08 22:15:22,573 [INFO ] Val Auc: 0.3455
2025-06-08 22:15:22,574 [INFO ] Test F1: 0.2680
2025-06-08 22:15:22,574 [INFO ] Test Precision: 0.1666
2025-06-08 22:15:22,574 [INFO ] Test Recall: 0.6847
…
| │    │    └─(1)ModuleDict      | --               | --             | 24,960   |
| │    └─(batch_norms)ModuleList | --               | --             | 256      |
| │    │    └─(0)ModuleDict      | --               | --             | 128      |
| │    │    └─(1)ModuleDict      | --               | --             | 128      |
| │    └─(emlps)ModuleList       | --               | --             | 66,048   |
| │    │    └─(0)ModuleList      | --               | --             | 33,024   |
| │    │    └─(1)ModuleList      | --               | --             | 33,024   |
| ├─(mlp)Sequential              | [693354, 192]    | [693354, 2]    | 10,977   |
| │    └─(0)Linear               | [693354, 192]    | [693354, 50]   | 9,650    |
| │    └─(1)ReLU                 | [693354, 50]     | [693354, 50]   | --       |
| │    └─(2)Dropout              | [693354, 50]     | [693354, 50]   | --       |
| │    └─(3)Linear               | [693354, 50]     | [693354, 25]   | 1,275    |
| │    └─(4)ReLU                 | [693354, 25]     | [693354, 25]   | --       |
| │    └─(5)Dropout              | [693354, 25]     | [693354, 25]   | --       |
| │    └─(6)Linear               | [693354, 25]     | [693354, 2]    | 52       |
+--------------------------------+------------------+----------------+----------+
2025-06-08 22:29:34,752 [INFO ] Val F1: 0.1485
2025-06-08 22:29:34,753 [INFO ] Val Precision: 0.0956
2025-06-08 22:29:34,754 [INFO ] Val Recall: 0.3333
2025-06-08 22:29:34,754 [INFO ] Val Auc: 0.1549
2025-06-08 22:29:34,754 [INFO ] Test F1: 0.1608
2025-06-08 22:29:34,754 [INFO ] Test Precision: 0.0938
2025-06-08 22:29:34,755 [INFO ] Test Recall: 0.5647
…
| │    │    └─(1)ModuleDict      | --               | --             | 24,960   |
| │    └─(batch_norms)ModuleList | --               | --             | 256      |
| │    │    └─(0)ModuleDict      | --               | --             | 128      |
| │    │    └─(1)ModuleDict      | --               | --             | 128      |
| │    └─(emlps)ModuleList       | --               | --             | 66,048   |
| │    │    └─(0)ModuleList      | --               | --             | 33,024   |
| │    │    └─(1)ModuleList      | --               | --             | 33,024   |
| ├─(mlp)Sequential              | [697297, 192]    | [697297, 2]    | 10,977   |
| │    └─(0)Linear               | [697297, 192]    | [697297, 50]   | 9,650    |
| │    └─(1)ReLU                 | [697297, 50]     | [697297, 50]   | --       |
| │    └─(2)Dropout              | [697297, 50]     | [697297, 50]   | --       |
| │    └─(3)Linear               | [697297, 50]     | [697297, 25]   | 1,275    |
| │    └─(4)ReLU                 | [697297, 25]     | [697297, 25]   | --       |
| │    └─(5)Dropout              | [697297, 25]     | [697297, 25]   | --       |
| │    └─(6)Linear               | [697297, 25]     | [697297, 2]    | 52       |
+--------------------------------+------------------+----------------+----------+
2025-06-08 23:21:14,465 [INFO ] Val F1: 0.2772
2025-06-08 23:21:14,478 [INFO ] Val Precision: 0.2410
2025-06-08 23:21:14,478 [INFO ] Val Recall: 0.3264
2025-06-08 23:21:14,478 [INFO ] Val Auc: 0.1965
2025-06-08 23:21:14,479 [INFO ] Test F1: 0.3424
2025-06-08 23:21:14,479 [INFO ] Test Precision: 0.2780
2025-06-08 23:21:14,479 [INFO ] Test Recall: 0.4459
…
| │    │    └─(1)ModuleDict      | --               | --             | 24,960   |
| │    └─(batch_norms)ModuleList | --               | --             | 256      |
| │    │    └─(0)ModuleDict      | --               | --             | 128      |
| │    │    └─(1)ModuleDict      | --               | --             | 128      |
| │    └─(emlps)ModuleList       | --               | --             | 66,048   |
| │    │    └─(0)ModuleList      | --               | --             | 33,024   |
| │    │    └─(1)ModuleList      | --               | --             | 33,024   |
| ├─(mlp)Sequential              | [696962, 192]    | [696962, 2]    | 10,977   |
| │    └─(0)Linear               | [696962, 192]    | [696962, 50]   | 9,650    |
| │    └─(1)ReLU                 | [696962, 50]     | [696962, 50]   | --       |
| │    └─(2)Dropout              | [696962, 50]     | [696962, 50]   | --       |
| │    └─(3)Linear               | [696962, 50]     | [696962, 25]   | 1,275    |
| │    └─(4)ReLU                 | [696962, 25]     | [696962, 25]   | --       |
| │    └─(5)Dropout              | [696962, 25]     | [696962, 25]   | --       |
| │    └─(6)Linear               | [696962, 25]     | [696962, 2]    | 52       |
+--------------------------------+------------------+----------------+----------+
2025-06-08 23:45:05,702 [INFO ] Val F1: 0.2206
2025-06-08 23:45:05,727 [INFO ] Val Precision: 0.1474
2025-06-08 23:45:05,727 [INFO ] Val Recall: 0.4386
2025-06-08 23:45:05,728 [INFO ] Val Auc: 0.2589
2025-06-08 23:45:05,728 [INFO ] Test F1: 0.2205
2025-06-08 23:45:05,728 [INFO ] Test Precision: 0.1334
2025-06-08 23:45:05,728 [INFO ] Test Recall: 0.6366
…
| │    │    └─(1)ModuleDict      | --               | --             | 24,960   |
| │    └─(batch_norms)ModuleList | --               | --             | 256      |
| │    │    └─(0)ModuleDict      | --               | --             | 128      |
| │    │    └─(1)ModuleDict      | --               | --             | 128      |
| │    └─(emlps)ModuleList       | --               | --             | 66,048   |
| │    │    └─(0)ModuleList      | --               | --             | 33,024   |
| │    │    └─(1)ModuleList      | --               | --             | 33,024   |
| ├─(mlp)Sequential              | [695854, 192]    | [695854, 2]    | 10,977   |
| │    └─(0)Linear               | [695854, 192]    | [695854, 50]   | 9,650    |
| │    └─(1)ReLU                 | [695854, 50]     | [695854, 50]   | --       |
| │    └─(2)Dropout              | [695854, 50]     | [695854, 50]   | --       |
| │    └─(3)Linear               | [695854, 50]     | [695854, 25]   | 1,275    |
| │    └─(4)ReLU                 | [695854, 25]     | [695854, 25]   | --       |
| │    └─(5)Dropout              | [695854, 25]     | [695854, 25]   | --       |
| │    └─(6)Linear               | [695854, 25]     | [695854, 2]    | 52       |
+--------------------------------+------------------+----------------+----------+
2025-06-09 00:32:49,204 [INFO ] Val F1: 0.2624
2025-06-09 00:32:49,225 [INFO ] Val Precision: 0.1792
2025-06-09 00:32:49,232 [INFO ] Val Recall: 0.4899
2025-06-09 00:32:49,232 [INFO ] Val Auc: 0.3404
2025-06-09 00:32:49,233 [INFO ] Test F1: 0.2693
2025-06-09 00:32:49,233 [INFO ] Test Precision: 0.1676
2025-06-09 00:32:49,233 [INFO ] Test Recall: 0.6853
…
| │    │    └─(1)ModuleDict      | --               | --             | 24,960   |
| │    └─(batch_norms)ModuleList | --               | --             | 256      |
| │    │    └─(0)ModuleDict      | --               | --             | 128      |
| │    │    └─(1)ModuleDict      | --               | --             | 128      |
| │    └─(emlps)ModuleList       | --               | --             | 66,048   |
| │    │    └─(0)ModuleList      | --               | --             | 33,024   |
| │    │    └─(1)ModuleList      | --               | --             | 33,024   |
| ├─(mlp)Sequential              | [693938, 192]    | [693938, 2]    | 10,977   |
| │    └─(0)Linear               | [693938, 192]    | [693938, 50]   | 9,650    |
| │    └─(1)ReLU                 | [693938, 50]     | [693938, 50]   | --       |
| │    └─(2)Dropout              | [693938, 50]     | [693938, 50]   | --       |
| │    └─(3)Linear               | [693938, 50]     | [693938, 25]   | 1,275    |
| │    └─(4)ReLU                 | [693938, 25]     | [693938, 25]   | --       |
| │    └─(5)Dropout              | [693938, 25]     | [693938, 25]   | --       |
| │    └─(6)Linear               | [693938, 25]     | [693938, 2]    | 52       |
+--------------------------------+------------------+----------------+----------+
2025-06-09 00:58:22,712 [INFO ] Val F1: 0.2920
2025-06-09 00:58:22,713 [INFO ] Val Precision: 0.2241
2025-06-09 00:58:22,713 [INFO ] Val Recall: 0.4192
2025-06-09 00:58:22,713 [INFO ] Val Auc: 0.2613
2025-06-09 00:58:22,714 [INFO ] Test F1: 0.3172
2025-06-09 00:58:22,714 [INFO ] Test Precision: 0.2116
2025-06-09 00:58:22,714 [INFO ] Test Recall: 0.6334
…
| │    │    └─(1)ModuleDict      | --               | --             | 24,960   |
| │    └─(batch_norms)ModuleList | --               | --             | 256      |
| │    │    └─(0)ModuleDict      | --               | --             | 128      |
| │    │    └─(1)ModuleDict      | --               | --             | 128      |
| │    └─(emlps)ModuleList       | --               | --             | 66,048   |
| │    │    └─(0)ModuleList      | --               | --             | 33,024   |
| │    │    └─(1)ModuleList      | --               | --             | 33,024   |
| ├─(mlp)Sequential              | [698349, 192]    | [698349, 2]    | 10,977   |
| │    └─(0)Linear               | [698349, 192]    | [698349, 50]   | 9,650    |
| │    └─(1)ReLU                 | [698349, 50]     | [698349, 50]   | --       |
| │    └─(2)Dropout              | [698349, 50]     | [698349, 50]   | --       |
| │    └─(3)Linear               | [698349, 50]     | [698349, 25]   | 1,275    |
| │    └─(4)ReLU                 | [698349, 25]     | [698349, 25]   | --       |
| │    └─(5)Dropout              | [698349, 25]     | [698349, 25]   | --       |
| │    └─(6)Linear               | [698349, 25]     | [698349, 2]    | 52       |
+--------------------------------+------------------+----------------+----------+
2025-06-09 01:21:06,938 [INFO ] Val F1: 0.2353
2025-06-09 01:21:06,963 [INFO ] Val Precision: 0.1754
2025-06-09 01:21:06,963 [INFO ] Val Recall: 0.3575
2025-06-09 01:21:06,963 [INFO ] Val Auc: 0.2246
2025-06-09 01:21:06,964 [INFO ] Test F1: 0.2653
2025-06-09 01:21:06,964 [INFO ] Test Precision: 0.1751
2025-06-09 01:21:06,964 [INFO ] Test Recall: 0.5469
…
| │    │    └─(1)ModuleDict      | --               | --             | 24,320   |
| │    └─(batch_norms)ModuleList | --               | --             | 80       |
| │    │    └─(0)ModuleDict      | --               | --             | 40       |
| │    │    └─(1)ModuleDict      | --               | --             | 40       |
| │    └─(emlps)ModuleList       | --               | --             | 6,560    |
| │    │    └─(0)ModuleList      | --               | --             | 3,280    |
| │    │    └─(1)ModuleList      | --               | --             | 3,280    |
| ├─(mlp)Sequential              | [703986, 60]     | [703986, 2]    | 4,377    |
| │    └─(0)Linear               | [703986, 60]     | [703986, 50]   | 3,050    |
| │    └─(1)ReLU                 | [703986, 50]     | [703986, 50]   | --       |
| │    └─(2)Dropout              | [703986, 50]     | [703986, 50]   | --       |
| │    └─(3)Linear               | [703986, 50]     | [703986, 25]   | 1,275    |
| │    └─(4)ReLU                 | [703986, 25]     | [703986, 25]   | --       |
| │    └─(5)Dropout              | [703986, 25]     | [703986, 25]   | --       |
| │    └─(6)Linear               | [703986, 25]     | [703986, 2]    | 52       |
+--------------------------------+------------------+----------------+----------+
2025-06-09 02:06:16,279 [INFO ] Val F1: 0.3449
2025-06-09 02:06:16,298 [INFO ] Val Precision: 0.6790
2025-06-09 02:06:16,298 [INFO ] Val Recall: 0.2312
2025-06-09 02:06:16,299 [INFO ] Val Auc: 0.3471
2025-06-09 02:06:16,299 [INFO ] Test F1: 0.4539
2025-06-09 02:06:16,299 [INFO ] Test Precision: 0.7422
2025-06-09 02:06:16,299 [INFO ] Test Recall: 0.3269
…
| │    │    └─(1)ModuleDict      | --               | --             | 24,320   |
| │    └─(batch_norms)ModuleList | --               | --             | 80       |
| │    │    └─(0)ModuleDict      | --               | --             | 40       |
| │    │    └─(1)ModuleDict      | --               | --             | 40       |
| │    └─(emlps)ModuleList       | --               | --             | 6,560    |
| │    │    └─(0)ModuleList      | --               | --             | 3,280    |
| │    │    └─(1)ModuleList      | --               | --             | 3,280    |
| ├─(mlp)Sequential              | [706777, 60]     | [706777, 2]    | 4,377    |
| │    └─(0)Linear               | [706777, 60]     | [706777, 50]   | 3,050    |
| │    └─(1)ReLU                 | [706777, 50]     | [706777, 50]   | --       |
| │    └─(2)Dropout              | [706777, 50]     | [706777, 50]   | --       |
| │    └─(3)Linear               | [706777, 50]     | [706777, 25]   | 1,275    |
| │    └─(4)ReLU                 | [706777, 25]     | [706777, 25]   | --       |
| │    └─(5)Dropout              | [706777, 25]     | [706777, 25]   | --       |
| │    └─(6)Linear               | [706777, 25]     | [706777, 2]    | 52       |
+--------------------------------+------------------+----------------+----------+
2025-06-09 02:51:26,529 [INFO ] Val F1: 0.3676
2025-06-09 02:51:26,542 [INFO ] Val Precision: 0.6778
2025-06-09 02:51:26,542 [INFO ] Val Recall: 0.2522
2025-06-09 02:51:26,542 [INFO ] Val Auc: 0.3683
2025-06-09 02:51:26,543 [INFO ] Test F1: 0.4331
2025-06-09 02:51:26,543 [INFO ] Test Precision: 0.7126
2025-06-09 02:51:26,543 [INFO ] Test Recall: 0.3111
…
| │    │    └─(1)ModuleDict      | --               | --             | 24,320   |
| │    └─(batch_norms)ModuleList | --               | --             | 80       |
| │    │    └─(0)ModuleDict      | --               | --             | 40       |
| │    │    └─(1)ModuleDict      | --               | --             | 40       |
| │    └─(emlps)ModuleList       | --               | --             | 6,560    |
| │    │    └─(0)ModuleList      | --               | --             | 3,280    |
| │    │    └─(1)ModuleList      | --               | --             | 3,280    |
| ├─(mlp)Sequential              | [697452, 60]     | [697452, 2]    | 4,377    |
| │    └─(0)Linear               | [697452, 60]     | [697452, 50]   | 3,050    |
| │    └─(1)ReLU                 | [697452, 50]     | [697452, 50]   | --       |
| │    └─(2)Dropout              | [697452, 50]     | [697452, 50]   | --       |
| │    └─(3)Linear               | [697452, 50]     | [697452, 25]   | 1,275    |
| │    └─(4)ReLU                 | [697452, 25]     | [697452, 25]   | --       |
| │    └─(5)Dropout              | [697452, 25]     | [697452, 25]   | --       |
| │    └─(6)Linear               | [697452, 25]     | [697452, 2]    | 52       |
+--------------------------------+------------------+----------------+----------+
2025-06-09 03:43:49,768 [INFO ] Val F1: 0.4304
2025-06-09 03:43:49,803 [INFO ] Val Precision: 0.6581
2025-06-09 03:43:49,803 [INFO ] Val Recall: 0.3198
2025-06-09 03:43:49,804 [INFO ] Val Auc: 0.3966
2025-06-09 03:43:49,804 [INFO ] Test F1: 0.5053
2025-06-09 03:43:49,804 [INFO ] Test Precision: 0.6941
2025-06-09 03:43:49,805 [INFO ] Test Recall: 0.3973
…
| │    │    └─(1)ModuleDict      | --               | --             | 24,320   |
| │    └─(batch_norms)ModuleList | --               | --             | 80       |
| │    │    └─(0)ModuleDict      | --               | --             | 40       |
| │    │    └─(1)ModuleDict      | --               | --             | 40       |
| │    └─(emlps)ModuleList       | --               | --             | 6,560    |
| │    │    └─(0)ModuleList      | --               | --             | 3,280    |
| │    │    └─(1)ModuleList      | --               | --             | 3,280    |
| ├─(mlp)Sequential              | [697061, 60]     | [697061, 2]    | 4,377    |
| │    └─(0)Linear               | [697061, 60]     | [697061, 50]   | 3,050    |
| │    └─(1)ReLU                 | [697061, 50]     | [697061, 50]   | --       |
| │    └─(2)Dropout              | [697061, 50]     | [697061, 50]   | --       |
| │    └─(3)Linear               | [697061, 50]     | [697061, 25]   | 1,275    |
| │    └─(4)ReLU                 | [697061, 25]     | [697061, 25]   | --       |
| │    └─(5)Dropout              | [697061, 25]     | [697061, 25]   | --       |
| │    └─(6)Linear               | [697061, 25]     | [697061, 2]    | 52       |
+--------------------------------+------------------+----------------+----------+
2025-06-09 04:05:39,674 [INFO ] Val F1: 0.3909
2025-06-09 04:05:39,684 [INFO ] Val Precision: 0.6119
2025-06-09 04:05:39,685 [INFO ] Val Recall: 0.2872
2025-06-09 04:05:39,685 [INFO ] Val Auc: 0.3533
2025-06-09 04:05:39,685 [INFO ] Test F1: 0.4670
2025-06-09 04:05:39,685 [INFO ] Test Precision: 0.6390
2025-06-09 04:05:39,685 [INFO ] Test Recall: 0.3680
…
| │    │    └─(1)ModuleDict      | --               | --             | 24,320   |
| │    └─(batch_norms)ModuleList | --               | --             | 80       |
| │    │    └─(0)ModuleDict      | --               | --             | 40       |
| │    │    └─(1)ModuleDict      | --               | --             | 40       |
| │    └─(emlps)ModuleList       | --               | --             | 6,560    |
| │    │    └─(0)ModuleList      | --               | --             | 3,280    |
| │    │    └─(1)ModuleList      | --               | --             | 3,280    |
| ├─(mlp)Sequential              | [702670, 60]     | [702670, 2]    | 4,377    |
| │    └─(0)Linear               | [702670, 60]     | [702670, 50]   | 3,050    |
| │    └─(1)ReLU                 | [702670, 50]     | [702670, 50]   | --       |
| │    └─(2)Dropout              | [702670, 50]     | [702670, 50]   | --       |
| │    └─(3)Linear               | [702670, 50]     | [702670, 25]   | 1,275    |
| │    └─(4)ReLU                 | [702670, 25]     | [702670, 25]   | --       |
| │    └─(5)Dropout              | [702670, 25]     | [702670, 25]   | --       |
| │    └─(6)Linear               | [702670, 25]     | [702670, 2]    | 52       |
+--------------------------------+------------------+----------------+----------+
2025-06-09 04:46:55,221 [INFO ] Val F1: 0.3443
2025-06-09 04:46:55,250 [INFO ] Val Precision: 0.6867
2025-06-09 04:46:55,250 [INFO ] Val Recall: 0.2298
2025-06-09 04:46:55,250 [INFO ] Val Auc: 0.4190
2025-06-09 04:46:55,251 [INFO ] Test F1: 0.3866
2025-06-09 04:46:55,251 [INFO ] Test Precision: 0.7504
2025-06-09 04:46:55,251 [INFO ] Test Recall: 0.2604
…
| │    │    └─(1)ModuleDict      | --               | --             | 24,960   |
| │    └─(batch_norms)ModuleList | --               | --             | 256      |
| │    │    └─(0)ModuleDict      | --               | --             | 128      |
| │    │    └─(1)ModuleDict      | --               | --             | 128      |
| │    └─(emlps)ModuleList       | --               | --             | 66,048   |
| │    │    └─(0)ModuleList      | --               | --             | 33,024   |
| │    │    └─(1)ModuleList      | --               | --             | 33,024   |
| ├─(mlp)Sequential              | [694876, 192]    | [694876, 2]    | 10,977   |
| │    └─(0)Linear               | [694876, 192]    | [694876, 50]   | 9,650    |
| │    └─(1)ReLU                 | [694876, 50]     | [694876, 50]   | --       |
| │    └─(2)Dropout              | [694876, 50]     | [694876, 50]   | --       |
| │    └─(3)Linear               | [694876, 50]     | [694876, 25]   | 1,275    |
| │    └─(4)ReLU                 | [694876, 25]     | [694876, 25]   | --       |
| │    └─(5)Dropout              | [694876, 25]     | [694876, 25]   | --       |
| │    └─(6)Linear               | [694876, 25]     | [694876, 2]    | 52       |
+--------------------------------+------------------+----------------+----------+
2025-06-09 16:16:15,212 [INFO ] Val F1: 0.2431
2025-06-09 16:16:15,225 [INFO ] Val Precision: 0.2117
2025-06-09 16:16:15,226 [INFO ] Val Recall: 0.2855
2025-06-09 16:16:15,226 [INFO ] Val Auc: 0.1945
2025-06-09 16:16:15,226 [INFO ] Test F1: 0.2794
2025-06-09 16:16:15,226 [INFO ] Test Precision: 0.2090
2025-06-09 16:16:15,227 [INFO ] Test Recall: 0.4214
…
| │    │    └─(1)ModuleDict      | --               | --             | 24,960   |
| │    └─(batch_norms)ModuleList | --               | --             | 256      |
| │    │    └─(0)ModuleDict      | --               | --             | 128      |
| │    │    └─(1)ModuleDict      | --               | --             | 128      |
| │    └─(emlps)ModuleList       | --               | --             | 66,048   |
| │    │    └─(0)ModuleList      | --               | --             | 33,024   |
| │    │    └─(1)ModuleList      | --               | --             | 33,024   |
| ├─(mlp)Sequential              | [701334, 192]    | [701334, 2]    | 10,977   |
| │    └─(0)Linear               | [701334, 192]    | [701334, 50]   | 9,650    |
| │    └─(1)ReLU                 | [701334, 50]     | [701334, 50]   | --       |
| │    └─(2)Dropout              | [701334, 50]     | [701334, 50]   | --       |
| │    └─(3)Linear               | [701334, 50]     | [701334, 25]   | 1,275    |
| │    └─(4)ReLU                 | [701334, 25]     | [701334, 25]   | --       |
| │    └─(5)Dropout              | [701334, 25]     | [701334, 25]   | --       |
| │    └─(6)Linear               | [701334, 25]     | [701334, 2]    | 52       |
+--------------------------------+------------------+----------------+----------+
2025-06-09 16:33:38,072 [INFO ] Val F1: 0.2347
2025-06-09 16:33:38,073 [INFO ] Val Precision: 0.1573
2025-06-09 16:33:38,073 [INFO ] Val Recall: 0.4620
2025-06-09 16:33:38,074 [INFO ] Val Auc: 0.2911
2025-06-09 16:33:38,074 [INFO ] Test F1: 0.2370
2025-06-09 16:33:38,074 [INFO ] Test Precision: 0.1449
2025-06-09 16:33:38,074 [INFO ] Test Recall: 0.6516
…
| │    │    └─(1)ModuleDict      | --               | --             | 24,320   |
| │    └─(batch_norms)ModuleList | --               | --             | 80       |
| │    │    └─(0)ModuleDict      | --               | --             | 40       |
| │    │    └─(1)ModuleDict      | --               | --             | 40       |
| │    └─(emlps)ModuleList       | --               | --             | 6,560    |
| │    │    └─(0)ModuleList      | --               | --             | 3,280    |
| │    │    └─(1)ModuleList      | --               | --             | 3,280    |
| ├─(mlp)Sequential              | [694805, 60]     | [694805, 2]    | 4,377    |
| │    └─(0)Linear               | [694805, 60]     | [694805, 50]   | 3,050    |
| │    └─(1)ReLU                 | [694805, 50]     | [694805, 50]   | --       |
| │    └─(2)Dropout              | [694805, 50]     | [694805, 50]   | --       |
| │    └─(3)Linear               | [694805, 50]     | [694805, 25]   | 1,275    |
| │    └─(4)ReLU                 | [694805, 25]     | [694805, 25]   | --       |
| │    └─(5)Dropout              | [694805, 25]     | [694805, 25]   | --       |
| │    └─(6)Linear               | [694805, 25]     | [694805, 2]    | 52       |
+--------------------------------+------------------+----------------+----------+
2025-06-09 16:53:06,369 [INFO ] Val F1: 0.3413
2025-06-09 16:53:06,384 [INFO ] Val Precision: 0.7477
2025-06-09 16:53:06,384 [INFO ] Val Recall: 0.2211
2025-06-09 16:53:06,384 [INFO ] Val Auc: 0.4186
2025-06-09 16:53:06,384 [INFO ] Test F1: 0.3991
2025-06-09 16:53:06,385 [INFO ] Test Precision: 0.7818
2025-06-09 16:53:06,385 [INFO ] Test Recall: 0.2679
…
| │    │    └─(1)ModuleDict      | --               | --             | 24,320   |
| │    └─(batch_norms)ModuleList | --               | --             | 80       |
| │    │    └─(0)ModuleDict      | --               | --             | 40       |
| │    │    └─(1)ModuleDict      | --               | --             | 40       |
| │    └─(emlps)ModuleList       | --               | --             | 6,560    |
| │    │    └─(0)ModuleList      | --               | --             | 3,280    |
| │    │    └─(1)ModuleList      | --               | --             | 3,280    |
| ├─(mlp)Sequential              | [694916, 60]     | [694916, 2]    | 4,377    |
| │    └─(0)Linear               | [694916, 60]     | [694916, 50]   | 3,050    |
| │    └─(1)ReLU                 | [694916, 50]     | [694916, 50]   | --       |
| │    └─(2)Dropout              | [694916, 50]     | [694916, 50]   | --       |
| │    └─(3)Linear               | [694916, 50]     | [694916, 25]   | 1,275    |
| │    └─(4)ReLU                 | [694916, 25]     | [694916, 25]   | --       |
| │    └─(5)Dropout              | [694916, 25]     | [694916, 25]   | --       |
| │    └─(6)Linear               | [694916, 25]     | [694916, 2]    | 52       |
+--------------------------------+------------------+----------------+----------+
2025-06-09 17:05:26,114 [INFO ] Val F1: 0.3770
2025-06-09 17:05:26,141 [INFO ] Val Precision: 0.6052
2025-06-09 17:05:26,141 [INFO ] Val Recall: 0.2738
2025-06-09 17:05:26,141 [INFO ] Val Auc: 0.3420
2025-06-09 17:05:26,141 [INFO ] Test F1: 0.4669
2025-06-09 17:05:26,142 [INFO ] Test Precision: 0.6412
2025-06-09 17:05:26,142 [INFO ] Test Recall: 0.3671
…
| │    │    └─(1)ModuleDict      | --               | --             | 24,960   |
| │    └─(batch_norms)ModuleList | --               | --             | 256      |
| │    │    └─(0)ModuleDict      | --               | --             | 128      |
| │    │    └─(1)ModuleDict      | --               | --             | 128      |
| │    └─(emlps)ModuleList       | --               | --             | 66,048   |
| │    │    └─(0)ModuleList      | --               | --             | 33,024   |
| │    │    └─(1)ModuleList      | --               | --             | 33,024   |
| ├─(mlp)Sequential              | [704677, 192]    | [704677, 2]    | 10,977   |
| │    └─(0)Linear               | [704677, 192]    | [704677, 50]   | 9,650    |
| │    └─(1)ReLU                 | [704677, 50]     | [704677, 50]   | --       |
| │    └─(2)Dropout              | [704677, 50]     | [704677, 50]   | --       |
| │    └─(3)Linear               | [704677, 50]     | [704677, 25]   | 1,275    |
| │    └─(4)ReLU                 | [704677, 25]     | [704677, 25]   | --       |
| │    └─(5)Dropout              | [704677, 25]     | [704677, 25]   | --       |
| │    └─(6)Linear               | [704677, 25]     | [704677, 2]    | 52       |
+--------------------------------+------------------+----------------+----------+
2025-06-15 00:21:09,604 [INFO ] Random seed set as 236405
2025-06-15 00:21:26,049 [INFO ] Retrieving data
2025-06-15 00:21:29,253 [INFO ] Available Edge Features: ['EdgeID', 'from_id', 'to_id', 'Timestamp', 'Amount Sent', 'Sent Currency', 'Amount Received', 'Received Currency', 'Payment Format', 'Is Laundering']
…
| │    │    └─(1)ModuleDict      | --               | --             | 24,960   |
| │    └─(batch_norms)ModuleList | --               | --             | 256      |
| │    │    └─(0)ModuleDict      | --               | --             | 128      |
| │    │    └─(1)ModuleDict      | --               | --             | 128      |
| │    └─(emlps)ModuleList       | --               | --             | 66,048   |
| │    │    └─(0)ModuleList      | --               | --             | 33,024   |
| │    │    └─(1)ModuleList      | --               | --             | 33,024   |
| ├─(mlp)Sequential              | [704350, 192]    | [704350, 2]    | 10,977   |
| │    └─(0)Linear               | [704350, 192]    | [704350, 50]   | 9,650    |
| │    └─(1)ReLU                 | [704350, 50]     | [704350, 50]   | --       |
| │    └─(2)Dropout              | [704350, 50]     | [704350, 50]   | --       |
| │    └─(3)Linear               | [704350, 50]     | [704350, 25]   | 1,275    |
| │    └─(4)ReLU                 | [704350, 25]     | [704350, 25]   | --       |
| │    └─(5)Dropout              | [704350, 25]     | [704350, 25]   | --       |
| │    └─(6)Linear               | [704350, 25]     | [704350, 2]    | 52       |
+--------------------------------+------------------+----------------+----------+
2025-06-15 15:58:57,257 [INFO ] Val F1: 0.6480
2025-06-15 15:58:57,258 [INFO ] Val Precision: 0.7922
2025-06-15 15:58:57,258 [INFO ] Val Recall: 0.5483
2025-06-15 15:58:57,259 [INFO ] Val Auc: 0.5659
2025-06-15 15:58:57,259 [INFO ] Test F1: 0.7325
2025-06-15 15:58:57,259 [INFO ] Test Precision: 0.7521
2025-06-15 15:58:57,260 [INFO ] Test Recall: 0.7138
…
| │    │    └─(1)ModuleDict      | --               | --             | 24,320   |
| │    └─(batch_norms)ModuleList | --               | --             | 80       |
| │    │    └─(0)ModuleDict      | --               | --             | 40       |
| │    │    └─(1)ModuleDict      | --               | --             | 40       |
| │    └─(emlps)ModuleList       | --               | --             | 6,560    |
| │    │    └─(0)ModuleList      | --               | --             | 3,280    |
| │    │    └─(1)ModuleList      | --               | --             | 3,280    |
| ├─(mlp)Sequential              | [696550, 60]     | [696550, 2]    | 4,377    |
| │    └─(0)Linear               | [696550, 60]     | [696550, 50]   | 3,050    |
| │    └─(1)ReLU                 | [696550, 50]     | [696550, 50]   | --       |
| │    └─(2)Dropout              | [696550, 50]     | [696550, 50]   | --       |
| │    └─(3)Linear               | [696550, 50]     | [696550, 25]   | 1,275    |
| │    └─(4)ReLU                 | [696550, 25]     | [696550, 25]   | --       |
| │    └─(5)Dropout              | [696550, 25]     | [696550, 25]   | --       |
| │    └─(6)Linear               | [696550, 25]     | [696550, 2]    | 52       |
+--------------------------------+------------------+----------------+----------+
2025-06-15 16:07:02,485 [INFO ] ---------- Epoch 0 ----------
2025-06-15 16:44:29,092 [INFO ] Train F1: 0.0042
2025-06-15 16:44:29,108 [INFO ] Train Precision: 0.0022
2025-06-15 16:44:29,108 [INFO ] Train Recall: 0.0466
2025-06-15 16:44:29,108 [INFO ] Train Auc: 0.0043
2025-06-15 16:53:47,068 [INFO ] Random seed set as 58428
…
| │    │    └─(1)ModuleDict      | --               | --             | 24,960   |
| │    └─(batch_norms)ModuleList | --               | --             | 256      |
| │    │    └─(0)ModuleDict      | --               | --             | 128      |
| │    │    └─(1)ModuleDict      | --               | --             | 128      |
| │    └─(emlps)ModuleList       | --               | --             | 66,048   |
| │    │    └─(0)ModuleList      | --               | --             | 33,024   |
| │    │    └─(1)ModuleList      | --               | --             | 33,024   |
| ├─(mlp)Sequential              | [706064, 192]    | [706064, 2]    | 10,977   |
| │    └─(0)Linear               | [706064, 192]    | [706064, 50]   | 9,650    |
| │    └─(1)ReLU                 | [706064, 50]     | [706064, 50]   | --       |
| │    └─(2)Dropout              | [706064, 50]     | [706064, 50]   | --       |
| │    └─(3)Linear               | [706064, 50]     | [706064, 25]   | 1,275    |
| │    └─(4)ReLU                 | [706064, 25]     | [706064, 25]   | --       |
| │    └─(5)Dropout              | [706064, 25]     | [706064, 25]   | --       |
| │    └─(6)Linear               | [706064, 25]     | [706064, 2]    | 52       |
+--------------------------------+------------------+----------------+----------+
2025-06-15 17:00:11,900 [INFO ] Val F1: 0.0017
2025-06-15 17:00:11,901 [INFO ] Val Precision: 0.0012
2025-06-15 17:00:11,901 [INFO ] Val Recall: 0.0029
2025-06-15 17:00:11,901 [INFO ] Val Auc: 0.0072
2025-06-15 17:00:11,902 [INFO ] Test F1: 0.0054
2025-06-15 17:00:11,902 [INFO ] Test Precision: 0.0048
2025-06-15 17:00:11,902 [INFO ] Test Recall: 0.0063
…
| │    │    └─(1)ModuleDict      | --               | --             | 24,960   |
| │    └─(batch_norms)ModuleList | --               | --             | 256      |
| │    │    └─(0)ModuleDict      | --               | --             | 128      |
| │    │    └─(1)ModuleDict      | --               | --             | 128      |
| │    └─(emlps)ModuleList       | --               | --             | 66,048   |
| │    │    └─(0)ModuleList      | --               | --             | 33,024   |
| │    │    └─(1)ModuleList      | --               | --             | 33,024   |
| ├─(mlp)Sequential              | [698329, 192]    | [698329, 2]    | 10,977   |
| │    └─(0)Linear               | [698329, 192]    | [698329, 50]   | 9,650    |
| │    └─(1)ReLU                 | [698329, 50]     | [698329, 50]   | --       |
| │    └─(2)Dropout              | [698329, 50]     | [698329, 50]   | --       |
| │    └─(3)Linear               | [698329, 50]     | [698329, 25]   | 1,275    |
| │    └─(4)ReLU                 | [698329, 25]     | [698329, 25]   | --       |
| │    └─(5)Dropout              | [698329, 25]     | [698329, 25]   | --       |
| │    └─(6)Linear               | [698329, 25]     | [698329, 2]    | 52       |
+--------------------------------+------------------+----------------+----------+
2025-06-15 17:08:55,138 [INFO ] Val F1: 0.6484
2025-06-15 17:08:55,139 [INFO ] Val Precision: 0.7922
2025-06-15 17:08:55,139 [INFO ] Val Recall: 0.5488
2025-06-15 17:08:55,140 [INFO ] Val Auc: 0.5675
2025-06-15 17:08:55,140 [INFO ] Test F1: 0.7330
2025-06-15 17:08:55,140 [INFO ] Test Precision: 0.7531
2025-06-15 17:08:55,140 [INFO ] Test Recall: 0.7138
…
| │    │    └─(1)ModuleDict      | --               | --             | 24,320   |
| │    └─(batch_norms)ModuleList | --               | --             | 80       |
| │    │    └─(0)ModuleDict      | --               | --             | 40       |
| │    │    └─(1)ModuleDict      | --               | --             | 40       |
| │    └─(emlps)ModuleList       | --               | --             | 6,560    |
| │    │    └─(0)ModuleList      | --               | --             | 3,280    |
| │    │    └─(1)ModuleList      | --               | --             | 3,280    |
| ├─(mlp)Sequential              | [696833, 60]     | [696833, 2]    | 4,377    |
| │    └─(0)Linear               | [696833, 60]     | [696833, 50]   | 3,050    |
| │    └─(1)ReLU                 | [696833, 50]     | [696833, 50]   | --       |
| │    └─(2)Dropout              | [696833, 50]     | [696833, 50]   | --       |
| │    └─(3)Linear               | [696833, 50]     | [696833, 25]   | 1,275    |
| │    └─(4)ReLU                 | [696833, 25]     | [696833, 25]   | --       |
| │    └─(5)Dropout              | [696833, 25]     | [696833, 25]   | --       |
| │    └─(6)Linear               | [696833, 25]     | [696833, 2]    | 52       |
+--------------------------------+------------------+----------------+----------+
2025-06-15 17:18:29,641 [INFO ] Val F1: 0.6655
2025-06-15 17:18:29,643 [INFO ] Val Precision: 0.8102
2025-06-15 17:18:29,643 [INFO ] Val Recall: 0.5647
2025-06-15 17:18:29,644 [INFO ] Val Auc: 0.6137
2025-06-15 17:18:29,644 [INFO ] Test F1: 0.7524
2025-06-15 17:18:29,644 [INFO ] Test Precision: 0.8073
2025-06-15 17:18:29,645 [INFO ] Test Recall: 0.7045
…
| │    │    └─(1)ModuleDict      | --               | --             | 24,960   |
| │    └─(batch_norms)ModuleList | --               | --             | 256      |
| │    │    └─(0)ModuleDict      | --               | --             | 128      |
| │    │    └─(1)ModuleDict      | --               | --             | 128      |
| │    └─(emlps)ModuleList       | --               | --             | 66,048   |
| │    │    └─(0)ModuleList      | --               | --             | 33,024   |
| │    │    └─(1)ModuleList      | --               | --             | 33,024   |
| ├─(mlp)Sequential              | [702906, 192]    | [702906, 2]    | 10,977   |
| │    └─(0)Linear               | [702906, 192]    | [702906, 50]   | 9,650    |
| │    └─(1)ReLU                 | [702906, 50]     | [702906, 50]   | --       |
| │    └─(2)Dropout              | [702906, 50]     | [702906, 50]   | --       |
| │    └─(3)Linear               | [702906, 50]     | [702906, 25]   | 1,275    |
| │    └─(4)ReLU                 | [702906, 25]     | [702906, 25]   | --       |
| │    └─(5)Dropout              | [702906, 25]     | [702906, 25]   | --       |
| │    └─(6)Linear               | [702906, 25]     | [702906, 2]    | 52       |
+--------------------------------+------------------+----------------+----------+
2025-06-15 18:01:41,469 [INFO ] Val F1: 0.0000
2025-06-15 18:01:41,470 [INFO ] Val Precision: 0.0000
2025-06-15 18:01:41,470 [INFO ] Val Recall: 0.0000
2025-06-15 18:01:41,470 [INFO ] Val Auc: 0.0059
2025-06-15 18:01:41,471 [INFO ] Test F1: 0.0000
2025-06-15 18:01:41,471 [INFO ] Test Precision: 0.0000
2025-06-15 18:01:41,471 [INFO ] Test Recall: 0.0000
…
| │    │    └─(1)ModuleDict      | --               | --             | 24,960   |
| │    └─(batch_norms)ModuleList | --               | --             | 256      |
| │    │    └─(0)ModuleDict      | --               | --             | 128      |
| │    │    └─(1)ModuleDict      | --               | --             | 128      |
| │    └─(emlps)ModuleList       | --               | --             | 66,048   |
| │    │    └─(0)ModuleList      | --               | --             | 33,024   |
| │    │    └─(1)ModuleList      | --               | --             | 33,024   |
| ├─(mlp)Sequential              | [705216, 192]    | [705216, 2]    | 10,977   |
| │    └─(0)Linear               | [705216, 192]    | [705216, 50]   | 9,650    |
| │    └─(1)ReLU                 | [705216, 50]     | [705216, 50]   | --       |
| │    └─(2)Dropout              | [705216, 50]     | [705216, 50]   | --       |
| │    └─(3)Linear               | [705216, 50]     | [705216, 25]   | 1,275    |
| │    └─(4)ReLU                 | [705216, 25]     | [705216, 25]   | --       |
| │    └─(5)Dropout              | [705216, 25]     | [705216, 25]   | --       |
| │    └─(6)Linear               | [705216, 25]     | [705216, 2]    | 52       |
+--------------------------------+------------------+----------------+----------+
2025-06-15 18:14:18,864 [INFO ] Val F1: 0.6484
2025-06-15 18:14:18,865 [INFO ] Val Precision: 0.7922
2025-06-15 18:14:18,866 [INFO ] Val Recall: 0.5488
2025-06-15 18:14:18,866 [INFO ] Val Auc: 0.5681
2025-06-15 18:14:18,866 [INFO ] Test F1: 0.7341
2025-06-15 18:14:18,867 [INFO ] Test Precision: 0.7548
2025-06-15 18:14:18,867 [INFO ] Test Recall: 0.7145
…
| │    │    └─(1)ModuleDict      | --               | --             | 24,960   |
| │    └─(batch_norms)ModuleList | --               | --             | 256      |
| │    │    └─(0)ModuleDict      | --               | --             | 128      |
| │    │    └─(1)ModuleDict      | --               | --             | 128      |
| │    └─(emlps)ModuleList       | --               | --             | 66,048   |
| │    │    └─(0)ModuleList      | --               | --             | 33,024   |
| │    │    └─(1)ModuleList      | --               | --             | 33,024   |
| ├─(mlp)Sequential              | [690911, 192]    | [690911, 2]    | 10,977   |
| │    └─(0)Linear               | [690911, 192]    | [690911, 50]   | 9,650    |
| │    └─(1)ReLU                 | [690911, 50]     | [690911, 50]   | --       |
| │    └─(2)Dropout              | [690911, 50]     | [690911, 50]   | --       |
| │    └─(3)Linear               | [690911, 50]     | [690911, 25]   | 1,275    |
| │    └─(4)ReLU                 | [690911, 25]     | [690911, 25]   | --       |
| │    └─(5)Dropout              | [690911, 25]     | [690911, 25]   | --       |
| │    └─(6)Linear               | [690911, 25]     | [690911, 2]    | 52       |
+--------------------------------+------------------+----------------+----------+
2025-06-15 18:21:06,215 [INFO ] Val F1: 0.6480
2025-06-15 18:21:06,216 [INFO ] Val Precision: 0.7922
2025-06-15 18:21:06,216 [INFO ] Val Recall: 0.5483
2025-06-15 18:21:06,216 [INFO ] Val Auc: 0.5670
2025-06-15 18:21:06,217 [INFO ] Test F1: 0.3923
2025-06-15 18:21:06,217 [INFO ] Test Precision: 0.8704
2025-06-15 18:21:06,217 [INFO ] Test Recall: 0.2532
…
| │    │    └─(1)ModuleDict      | --               | --             | 24,320   |
| │    └─(batch_norms)ModuleList | --               | --             | 80       |
| │    │    └─(0)ModuleDict      | --               | --             | 40       |
| │    │    └─(1)ModuleDict      | --               | --             | 40       |
| │    └─(emlps)ModuleList       | --               | --             | 6,560    |
| │    │    └─(0)ModuleList      | --               | --             | 3,280    |
| │    │    └─(1)ModuleList      | --               | --             | 3,280    |
| ├─(mlp)Sequential              | [699031, 60]     | [699031, 2]    | 4,377    |
| │    └─(0)Linear               | [699031, 60]     | [699031, 50]   | 3,050    |
| │    └─(1)ReLU                 | [699031, 50]     | [699031, 50]   | --       |
| │    └─(2)Dropout              | [699031, 50]     | [699031, 50]   | --       |
| │    └─(3)Linear               | [699031, 50]     | [699031, 25]   | 1,275    |
| │    └─(4)ReLU                 | [699031, 25]     | [699031, 25]   | --       |
| │    └─(5)Dropout              | [699031, 25]     | [699031, 25]   | --       |
| │    └─(6)Linear               | [699031, 25]     | [699031, 2]    | 52       |
+--------------------------------+------------------+----------------+----------+
2025-06-15 18:27:21,965 [INFO ] Val F1: 0.6644
2025-06-15 18:27:21,967 [INFO ] Val Precision: 0.8077
2025-06-15 18:27:21,967 [INFO ] Val Recall: 0.5643
2025-06-15 18:27:21,967 [INFO ] Val Auc: 0.6148
2025-06-15 18:27:21,968 [INFO ] Test F1: 0.2052
2025-06-15 18:27:21,968 [INFO ] Test Precision: 0.1507
2025-06-15 18:27:21,968 [INFO ] Test Recall: 0.3216
…
| │    │    └─(1)ModuleDict      | --               | --             | 24,960   |
| │    └─(batch_norms)ModuleList | --               | --             | 256      |
| │    │    └─(0)ModuleDict      | --               | --             | 128      |
| │    │    └─(1)ModuleDict      | --               | --             | 128      |
| │    └─(emlps)ModuleList       | --               | --             | 66,048   |
| │    │    └─(0)ModuleList      | --               | --             | 33,024   |
| │    │    └─(1)ModuleList      | --               | --             | 33,024   |
| ├─(mlp)Sequential              | [704243, 192]    | [704243, 2]    | 10,977   |
| │    └─(0)Linear               | [704243, 192]    | [704243, 50]   | 9,650    |
| │    └─(1)ReLU                 | [704243, 50]     | [704243, 50]   | --       |
| │    └─(2)Dropout              | [704243, 50]     | [704243, 50]   | --       |
| │    └─(3)Linear               | [704243, 50]     | [704243, 25]   | 1,275    |
| │    └─(4)ReLU                 | [704243, 25]     | [704243, 25]   | --       |
| │    └─(5)Dropout              | [704243, 25]     | [704243, 25]   | --       |
| │    └─(6)Linear               | [704243, 25]     | [704243, 2]    | 52       |
+--------------------------------+------------------+----------------+----------+
2025-06-15 18:35:32,295 [INFO ] Val F1: 0.6480
2025-06-15 18:35:32,296 [INFO ] Val Precision: 0.7922
2025-06-15 18:35:32,296 [INFO ] Val Recall: 0.5483
2025-06-15 18:35:32,296 [INFO ] Val Auc: 0.5670
2025-06-15 18:35:32,297 [INFO ] Test F1: 0.3931
2025-06-15 18:35:32,297 [INFO ] Test Precision: 0.7759
2025-06-15 18:35:32,297 [INFO ] Test Recall: 0.2632
…
| │    │    └─(1)ModuleDict      | --               | --             | 24,320   |
| │    └─(batch_norms)ModuleList | --               | --             | 80       |
| │    │    └─(0)ModuleDict      | --               | --             | 40       |
| │    │    └─(1)ModuleDict      | --               | --             | 40       |
| │    └─(emlps)ModuleList       | --               | --             | 6,560    |
| │    │    └─(0)ModuleList      | --               | --             | 3,280    |
| │    │    └─(1)ModuleList      | --               | --             | 3,280    |
| ├─(mlp)Sequential              | [697427, 60]     | [697427, 2]    | 4,377    |
| │    └─(0)Linear               | [697427, 60]     | [697427, 50]   | 3,050    |
| │    └─(1)ReLU                 | [697427, 50]     | [697427, 50]   | --       |
| │    └─(2)Dropout              | [697427, 50]     | [697427, 50]   | --       |
| │    └─(3)Linear               | [697427, 50]     | [697427, 25]   | 1,275    |
| │    └─(4)ReLU                 | [697427, 25]     | [697427, 25]   | --       |
| │    └─(5)Dropout              | [697427, 25]     | [697427, 25]   | --       |
| │    └─(6)Linear               | [697427, 25]     | [697427, 2]    | 52       |
+--------------------------------+------------------+----------------+----------+
2025-06-15 18:43:12,504 [INFO ] Val F1: 0.6655
2025-06-15 18:43:12,505 [INFO ] Val Precision: 0.8083
2025-06-15 18:43:12,505 [INFO ] Val Recall: 0.5656
2025-06-15 18:43:12,505 [INFO ] Val Auc: 0.6148
2025-06-15 18:43:12,506 [INFO ] Test F1: 0.1575
2025-06-15 18:43:12,506 [INFO ] Test Precision: 0.0958
2025-06-15 18:43:12,506 [INFO ] Test Recall: 0.4419
…
| │    │    └─(1)ModuleDict      | --               | --             | 24,960   |
| │    └─(batch_norms)ModuleList | --               | --             | 256      |
| │    │    └─(0)ModuleDict      | --               | --             | 128      |
| │    │    └─(1)ModuleDict      | --               | --             | 128      |
| │    └─(emlps)ModuleList       | --               | --             | 66,048   |
| │    │    └─(0)ModuleList      | --               | --             | 33,024   |
| │    │    └─(1)ModuleList      | --               | --             | 33,024   |
| ├─(mlp)Sequential              | [693224, 192]    | [693224, 2]    | 10,977   |
| │    └─(0)Linear               | [693224, 192]    | [693224, 50]   | 9,650    |
| │    └─(1)ReLU                 | [693224, 50]     | [693224, 50]   | --       |
| │    └─(2)Dropout              | [693224, 50]     | [693224, 50]   | --       |
| │    └─(3)Linear               | [693224, 50]     | [693224, 25]   | 1,275    |
| │    └─(4)ReLU                 | [693224, 25]     | [693224, 25]   | --       |
| │    └─(5)Dropout              | [693224, 25]     | [693224, 25]   | --       |
| │    └─(6)Linear               | [693224, 25]     | [693224, 2]    | 52       |
+--------------------------------+------------------+----------------+----------+
2025-06-15 18:47:39,690 [INFO ] Val F1: 0.6477
2025-06-15 18:47:39,691 [INFO ] Val Precision: 0.7911
2025-06-15 18:47:39,691 [INFO ] Val Recall: 0.5483
2025-06-15 18:47:39,691 [INFO ] Val Auc: 0.5667
2025-06-15 18:47:39,692 [INFO ] Test F1: 0.3742
2025-06-15 18:47:39,692 [INFO ] Test Precision: 0.8374
2025-06-15 18:47:39,692 [INFO ] Test Recall: 0.2409
…
| │    │    └─(1)ModuleDict      | --               | --             | 24,320   |
| │    └─(batch_norms)ModuleList | --               | --             | 80       |
| │    │    └─(0)ModuleDict      | --               | --             | 40       |
| │    │    └─(1)ModuleDict      | --               | --             | 40       |
| │    └─(emlps)ModuleList       | --               | --             | 6,560    |
| │    │    └─(0)ModuleList      | --               | --             | 3,280    |
| │    │    └─(1)ModuleList      | --               | --             | 3,280    |
| ├─(mlp)Sequential              | [700142, 60]     | [700142, 2]    | 4,377    |
| │    └─(0)Linear               | [700142, 60]     | [700142, 50]   | 3,050    |
| │    └─(1)ReLU                 | [700142, 50]     | [700142, 50]   | --       |
| │    └─(2)Dropout              | [700142, 50]     | [700142, 50]   | --       |
| │    └─(3)Linear               | [700142, 50]     | [700142, 25]   | 1,275    |
| │    └─(4)ReLU                 | [700142, 25]     | [700142, 25]   | --       |
| │    └─(5)Dropout              | [700142, 25]     | [700142, 25]   | --       |
| │    └─(6)Linear               | [700142, 25]     | [700142, 2]    | 52       |
+--------------------------------+------------------+----------------+----------+
2025-06-15 18:54:17,452 [INFO ] Val F1: 0.6648
2025-06-15 18:54:17,452 [INFO ] Val Precision: 0.8080
2025-06-15 18:54:17,452 [INFO ] Val Recall: 0.5647
2025-06-15 18:54:17,453 [INFO ] Val Auc: 0.6141
2025-06-15 18:54:17,453 [INFO ] Test F1: 0.1805
2025-06-15 18:54:17,453 [INFO ] Test Precision: 0.1226
2025-06-15 18:54:17,453 [INFO ] Test Recall: 0.3419
…
| │    │    └─(1)ModuleDict      | --               | --             | 24,960   |
| │    └─(batch_norms)ModuleList | --               | --             | 256      |
| │    │    └─(0)ModuleDict      | --               | --             | 128      |
| │    │    └─(1)ModuleDict      | --               | --             | 128      |
| │    └─(emlps)ModuleList       | --               | --             | 66,048   |
| │    │    └─(0)ModuleList      | --               | --             | 33,024   |
| │    │    └─(1)ModuleList      | --               | --             | 33,024   |
| ├─(mlp)Sequential              | [700308, 192]    | [700308, 2]    | 10,977   |
| │    └─(0)Linear               | [700308, 192]    | [700308, 50]   | 9,650    |
| │    └─(1)ReLU                 | [700308, 50]     | [700308, 50]   | --       |
| │    └─(2)Dropout              | [700308, 50]     | [700308, 50]   | --       |
| │    └─(3)Linear               | [700308, 50]     | [700308, 25]   | 1,275    |
| │    └─(4)ReLU                 | [700308, 25]     | [700308, 25]   | --       |
| │    └─(5)Dropout              | [700308, 25]     | [700308, 25]   | --       |
| │    └─(6)Linear               | [700308, 25]     | [700308, 2]    | 52       |
+--------------------------------+------------------+----------------+----------+
2025-06-15 19:02:12,555 [INFO ] Val F1: 0.6492
2025-06-15 19:02:12,555 [INFO ] Val Precision: 0.7925
2025-06-15 19:02:12,556 [INFO ] Val Recall: 0.5498
2025-06-15 19:02:12,556 [INFO ] Val Auc: 0.5679
2025-06-15 19:02:12,556 [INFO ] Test F1: 0.5190
2025-06-15 19:02:12,557 [INFO ] Test Precision: 0.8672
2025-06-15 19:02:12,557 [INFO ] Test Recall: 0.3703
…
| │    │    └─(1)ModuleDict      | --               | --             | 24,320   |
| │    └─(batch_norms)ModuleList | --               | --             | 80       |
| │    │    └─(0)ModuleDict      | --               | --             | 40       |
| │    │    └─(1)ModuleDict      | --               | --             | 40       |
| │    └─(emlps)ModuleList       | --               | --             | 6,560    |
| │    │    └─(0)ModuleList      | --               | --             | 3,280    |
| │    │    └─(1)ModuleList      | --               | --             | 3,280    |
| ├─(mlp)Sequential              | [700659, 60]     | [700659, 2]    | 4,377    |
| │    └─(0)Linear               | [700659, 60]     | [700659, 50]   | 3,050    |
| │    └─(1)ReLU                 | [700659, 50]     | [700659, 50]   | --       |
| │    └─(2)Dropout              | [700659, 50]     | [700659, 50]   | --       |
| │    └─(3)Linear               | [700659, 50]     | [700659, 25]   | 1,275    |
| │    └─(4)ReLU                 | [700659, 25]     | [700659, 25]   | --       |
| │    └─(5)Dropout              | [700659, 25]     | [700659, 25]   | --       |
| │    └─(6)Linear               | [700659, 25]     | [700659, 2]    | 52       |
+--------------------------------+------------------+----------------+----------+
2025-06-15 19:12:23,831 [INFO ] Val F1: 0.6648
2025-06-15 19:12:23,832 [INFO ] Val Precision: 0.8080
2025-06-15 19:12:23,832 [INFO ] Val Recall: 0.5647
2025-06-15 19:12:23,833 [INFO ] Val Auc: 0.6147
2025-06-15 19:12:23,833 [INFO ] Test F1: 0.2201
2025-06-15 19:12:23,833 [INFO ] Test Precision: 0.1481
2025-06-15 19:12:23,833 [INFO ] Test Recall: 0.4282
…
| │    │    └─(1)ModuleDict      | --               | --             | 24,320   |
| │    └─(batch_norms)ModuleList | --               | --             | 80       |
| │    │    └─(0)ModuleDict      | --               | --             | 40       |
| │    │    └─(1)ModuleDict      | --               | --             | 40       |
| │    └─(emlps)ModuleList       | --               | --             | 6,560    |
| │    │    └─(0)ModuleList      | --               | --             | 3,280    |
| │    │    └─(1)ModuleList      | --               | --             | 3,280    |
| ├─(mlp)Sequential              | [702973, 60]     | [702973, 2]    | 4,377    |
| │    └─(0)Linear               | [702973, 60]     | [702973, 50]   | 3,050    |
| │    └─(1)ReLU                 | [702973, 50]     | [702973, 50]   | --       |
| │    └─(2)Dropout              | [702973, 50]     | [702973, 50]   | --       |
| │    └─(3)Linear               | [702973, 50]     | [702973, 25]   | 1,275    |
| │    └─(4)ReLU                 | [702973, 25]     | [702973, 25]   | --       |
| │    └─(5)Dropout              | [702973, 25]     | [702973, 25]   | --       |
| │    └─(6)Linear               | [702973, 25]     | [702973, 2]    | 52       |
+--------------------------------+------------------+----------------+----------+
2025-06-15 22:46:19,750 [INFO ] Val F1: 0.6682
2025-06-15 22:46:19,751 [INFO ] Val Precision: 0.8102
2025-06-15 22:46:19,751 [INFO ] Val Recall: 0.5685
2025-06-15 22:46:19,751 [INFO ] Val Auc: 0.6153
2025-06-15 22:46:19,752 [INFO ] Test F1: 0.1955
2025-06-15 22:46:19,752 [INFO ] Test Precision: 0.1430
2025-06-15 22:46:19,752 [INFO ] Test Recall: 0.3085
…
| │    │    └─(1)ModuleDict      | --               | --             | 24,320   |
| │    └─(batch_norms)ModuleList | --               | --             | 80       |
| │    │    └─(0)ModuleDict      | --               | --             | 40       |
| │    │    └─(1)ModuleDict      | --               | --             | 40       |
| │    └─(emlps)ModuleList       | --               | --             | 6,560    |
| │    │    └─(0)ModuleList      | --               | --             | 3,280    |
| │    │    └─(1)ModuleList      | --               | --             | 3,280    |
| ├─(mlp)Sequential              | [701409, 60]     | [701409, 2]    | 4,377    |
| │    └─(0)Linear               | [701409, 60]     | [701409, 50]   | 3,050    |
| │    └─(1)ReLU                 | [701409, 50]     | [701409, 50]   | --       |
| │    └─(2)Dropout              | [701409, 50]     | [701409, 50]   | --       |
| │    └─(3)Linear               | [701409, 50]     | [701409, 25]   | 1,275    |
| │    └─(4)ReLU                 | [701409, 25]     | [701409, 25]   | --       |
| │    └─(5)Dropout              | [701409, 25]     | [701409, 25]   | --       |
| │    └─(6)Linear               | [701409, 25]     | [701409, 2]    | 52       |
+--------------------------------+------------------+----------------+----------+
2025-06-15 23:03:56,425 [INFO ] Val F1: 0.6652
2025-06-15 23:03:56,426 [INFO ] Val Precision: 0.8091
2025-06-15 23:03:56,426 [INFO ] Val Recall: 0.5647
2025-06-15 23:03:56,426 [INFO ] Val Auc: 0.6144
2025-06-15 23:03:56,427 [INFO ] Test F1: 0.1953
2025-06-15 23:03:56,427 [INFO ] Test Precision: 0.1429
2025-06-15 23:03:56,427 [INFO ] Test Recall: 0.3082
…
| │    │    └─(1)ModuleDict      | --               | --             | 24,960   |
| │    └─(batch_norms)ModuleList | --               | --             | 256      |
| │    │    └─(0)ModuleDict      | --               | --             | 128      |
| │    │    └─(1)ModuleDict      | --               | --             | 128      |
| │    └─(emlps)ModuleList       | --               | --             | 66,048   |
| │    │    └─(0)ModuleList      | --               | --             | 33,024   |
| │    │    └─(1)ModuleList      | --               | --             | 33,024   |
| ├─(mlp)Sequential              | [700074, 192]    | [700074, 2]    | 10,977   |
| │    └─(0)Linear               | [700074, 192]    | [700074, 50]   | 9,650    |
| │    └─(1)ReLU                 | [700074, 50]     | [700074, 50]   | --       |
| │    └─(2)Dropout              | [700074, 50]     | [700074, 50]   | --       |
| │    └─(3)Linear               | [700074, 50]     | [700074, 25]   | 1,275    |
| │    └─(4)ReLU                 | [700074, 25]     | [700074, 25]   | --       |
| │    └─(5)Dropout              | [700074, 25]     | [700074, 25]   | --       |
| │    └─(6)Linear               | [700074, 25]     | [700074, 2]    | 52       |
+--------------------------------+------------------+----------------+----------+
2025-06-15 23:09:06,848 [INFO ] Val F1: 0.6484
2025-06-15 23:09:06,849 [INFO ] Val Precision: 0.7922
2025-06-15 23:09:06,850 [INFO ] Val Recall: 0.5488
2025-06-15 23:09:06,850 [INFO ] Val Auc: 0.5675
2025-06-15 23:09:06,850 [INFO ] Test F1: 0.3822
2025-06-15 23:09:06,850 [INFO ] Test Precision: 0.8636
2025-06-15 23:09:06,851 [INFO ] Test Recall: 0.2454
…
| │    │    └─(1)ModuleDict      | --               | --             | 24,960   |
| │    └─(batch_norms)ModuleList | --               | --             | 256      |
| │    │    └─(0)ModuleDict      | --               | --             | 128      |
| │    │    └─(1)ModuleDict      | --               | --             | 128      |
| │    └─(emlps)ModuleList       | --               | --             | 66,048   |
| │    │    └─(0)ModuleList      | --               | --             | 33,024   |
| │    │    └─(1)ModuleList      | --               | --             | 33,024   |
| ├─(mlp)Sequential              | [708775, 192]    | [708775, 2]    | 10,977   |
| │    └─(0)Linear               | [708775, 192]    | [708775, 50]   | 9,650    |
| │    └─(1)ReLU                 | [708775, 50]     | [708775, 50]   | --       |
| │    └─(2)Dropout              | [708775, 50]     | [708775, 50]   | --       |
| │    └─(3)Linear               | [708775, 50]     | [708775, 25]   | 1,275    |
| │    └─(4)ReLU                 | [708775, 25]     | [708775, 25]   | --       |
| │    └─(5)Dropout              | [708775, 25]     | [708775, 25]   | --       |
| │    └─(6)Linear               | [708775, 25]     | [708775, 2]    | 52       |
+--------------------------------+------------------+----------------+----------+
2025-06-16 01:53:45,136 [INFO ] Val F1: 0.6484
2025-06-16 01:53:45,137 [INFO ] Val Precision: 0.7922
2025-06-16 01:53:45,137 [INFO ] Val Recall: 0.5488
2025-06-16 01:53:45,138 [INFO ] Val Auc: 0.5676
2025-06-16 01:53:45,138 [INFO ] Test F1: 0.3854
2025-06-16 01:53:45,138 [INFO ] Test Precision: 0.7700
2025-06-16 01:53:45,138 [INFO ] Test Recall: 0.2570
…
| │    │    └─(1)ModuleDict      | --               | --             | 24,320   |
| │    └─(batch_norms)ModuleList | --               | --             | 80       |
| │    │    └─(0)ModuleDict      | --               | --             | 40       |
| │    │    └─(1)ModuleDict      | --               | --             | 40       |
| │    └─(emlps)ModuleList       | --               | --             | 6,560    |
| │    │    └─(0)ModuleList      | --               | --             | 3,280    |
| │    │    └─(1)ModuleList      | --               | --             | 3,280    |
| ├─(mlp)Sequential              | [702797, 60]     | [702797, 2]    | 4,377    |
| │    └─(0)Linear               | [702797, 60]     | [702797, 50]   | 3,050    |
| │    └─(1)ReLU                 | [702797, 50]     | [702797, 50]   | --       |
| │    └─(2)Dropout              | [702797, 50]     | [702797, 50]   | --       |
| │    └─(3)Linear               | [702797, 50]     | [702797, 25]   | 1,275    |
| │    └─(4)ReLU                 | [702797, 25]     | [702797, 25]   | --       |
| │    └─(5)Dropout              | [702797, 25]     | [702797, 25]   | --       |
| │    └─(6)Linear               | [702797, 25]     | [702797, 2]    | 52       |
+--------------------------------+------------------+----------------+----------+
2025-06-16 01:58:43,250 [INFO ] Val F1: 0.6648
2025-06-16 01:58:43,251 [INFO ] Val Precision: 0.8080
2025-06-16 01:58:43,251 [INFO ] Val Recall: 0.5647
2025-06-16 01:58:43,252 [INFO ] Val Auc: 0.6129
2025-06-16 01:58:43,252 [INFO ] Test F1: 0.1568
2025-06-16 01:58:43,252 [INFO ] Test Precision: 0.0954
2025-06-16 01:58:43,253 [INFO ] Test Recall: 0.4394
…
| │    │    └─(1)ModuleDict      | --               | --             | 24,960   |
| │    └─(batch_norms)ModuleList | --               | --             | 256      |
| │    │    └─(0)ModuleDict      | --               | --             | 128      |
| │    │    └─(1)ModuleDict      | --               | --             | 128      |
| │    └─(emlps)ModuleList       | --               | --             | 66,048   |
| │    │    └─(0)ModuleList      | --               | --             | 33,024   |
| │    │    └─(1)ModuleList      | --               | --             | 33,024   |
| ├─(mlp)Sequential              | [701584, 192]    | [701584, 2]    | 10,977   |
| │    └─(0)Linear               | [701584, 192]    | [701584, 50]   | 9,650    |
| │    └─(1)ReLU                 | [701584, 50]     | [701584, 50]   | --       |
| │    └─(2)Dropout              | [701584, 50]     | [701584, 50]   | --       |
| │    └─(3)Linear               | [701584, 50]     | [701584, 25]   | 1,275    |
| │    └─(4)ReLU                 | [701584, 25]     | [701584, 25]   | --       |
| │    └─(5)Dropout              | [701584, 25]     | [701584, 25]   | --       |
| │    └─(6)Linear               | [701584, 25]     | [701584, 2]    | 52       |
+--------------------------------+------------------+----------------+----------+
2025-06-16 02:14:00,407 [INFO ] Val F1: 0.6492
2025-06-16 02:14:00,408 [INFO ] Val Precision: 0.7925
2025-06-16 02:14:00,408 [INFO ] Val Recall: 0.5498
2025-06-16 02:14:00,408 [INFO ] Val Auc: 0.5677
2025-06-16 02:14:00,409 [INFO ] Test F1: 0.3854
2025-06-16 02:14:00,409 [INFO ] Test Precision: 0.7700
2025-06-16 02:14:00,409 [INFO ] Test Recall: 0.2570
…
| │    │    └─(1)ModuleDict      | --               | --             | 24,960   |
| │    └─(batch_norms)ModuleList | --               | --             | 256      |
| │    │    └─(0)ModuleDict      | --               | --             | 128      |
| │    │    └─(1)ModuleDict      | --               | --             | 128      |
| │    └─(emlps)ModuleList       | --               | --             | 66,048   |
| │    │    └─(0)ModuleList      | --               | --             | 33,024   |
| │    │    └─(1)ModuleList      | --               | --             | 33,024   |
| ├─(mlp)Sequential              | [702417, 192]    | [702417, 2]    | 10,977   |
| │    └─(0)Linear               | [702417, 192]    | [702417, 50]   | 9,650    |
| │    └─(1)ReLU                 | [702417, 50]     | [702417, 50]   | --       |
| │    └─(2)Dropout              | [702417, 50]     | [702417, 50]   | --       |
| │    └─(3)Linear               | [702417, 50]     | [702417, 25]   | 1,275    |
| │    └─(4)ReLU                 | [702417, 25]     | [702417, 25]   | --       |
| │    └─(5)Dropout              | [702417, 25]     | [702417, 25]   | --       |
| │    └─(6)Linear               | [702417, 25]     | [702417, 2]    | 52       |
+--------------------------------+------------------+----------------+----------+
2025-06-16 02:18:06,244 [INFO ] Val F1: 0.6480
2025-06-16 02:18:06,244 [INFO ] Val Precision: 0.7922
2025-06-16 02:18:06,245 [INFO ] Val Recall: 0.5483
2025-06-16 02:18:06,245 [INFO ] Val Auc: 0.5672
2025-06-16 02:18:06,245 [INFO ] Test F1: 0.3899
2025-06-16 02:18:06,246 [INFO ] Test Precision: 0.7741
2025-06-16 02:18:06,246 [INFO ] Test Recall: 0.2606
…
| │    │    └─(1)ModuleDict      | --               | --             | 24,960   |
| │    └─(batch_norms)ModuleList | --               | --             | 256      |
| │    │    └─(0)ModuleDict      | --               | --             | 128      |
| │    │    └─(1)ModuleDict      | --               | --             | 128      |
| │    └─(emlps)ModuleList       | --               | --             | 66,048   |
| │    │    └─(0)ModuleList      | --               | --             | 33,024   |
| │    │    └─(1)ModuleList      | --               | --             | 33,024   |
| ├─(mlp)Sequential              | [700610, 192]    | [700610, 2]    | 10,977   |
| │    └─(0)Linear               | [700610, 192]    | [700610, 50]   | 9,650    |
| │    └─(1)ReLU                 | [700610, 50]     | [700610, 50]   | --       |
| │    └─(2)Dropout              | [700610, 50]     | [700610, 50]   | --       |
| │    └─(3)Linear               | [700610, 50]     | [700610, 25]   | 1,275    |
| │    └─(4)ReLU                 | [700610, 25]     | [700610, 25]   | --       |
| │    └─(5)Dropout              | [700610, 25]     | [700610, 25]   | --       |
| │    └─(6)Linear               | [700610, 25]     | [700610, 2]    | 52       |
+--------------------------------+------------------+----------------+----------+
2025-06-16 03:02:50,813 [INFO ] Val F1: 0.6484
2025-06-16 03:02:50,814 [INFO ] Val Precision: 0.7922
2025-06-16 03:02:50,814 [INFO ] Val Recall: 0.5488
2025-06-16 03:02:50,814 [INFO ] Val Auc: 0.5674
2025-06-16 03:02:50,815 [INFO ] Test F1: 0.3854
2025-06-16 03:02:50,815 [INFO ] Test Precision: 0.7700
2025-06-16 03:02:50,815 [INFO ] Test Recall: 0.2570
…
| │    │    └─(1)ModuleDict      | --               | --             | 24,960   |
| │    └─(batch_norms)ModuleList | --               | --             | 256      |
| │    │    └─(0)ModuleDict      | --               | --             | 128      |
| │    │    └─(1)ModuleDict      | --               | --             | 128      |
| │    └─(emlps)ModuleList       | --               | --             | 66,048   |
| │    │    └─(0)ModuleList      | --               | --             | 33,024   |
| │    │    └─(1)ModuleList      | --               | --             | 33,024   |
| ├─(mlp)Sequential              | [698844, 192]    | [698844, 2]    | 10,977   |
| │    └─(0)Linear               | [698844, 192]    | [698844, 50]   | 9,650    |
| │    └─(1)ReLU                 | [698844, 50]     | [698844, 50]   | --       |
| │    └─(2)Dropout              | [698844, 50]     | [698844, 50]   | --       |
| │    └─(3)Linear               | [698844, 50]     | [698844, 25]   | 1,275    |
| │    └─(4)ReLU                 | [698844, 25]     | [698844, 25]   | --       |
| │    └─(5)Dropout              | [698844, 25]     | [698844, 25]   | --       |
| │    └─(6)Linear               | [698844, 25]     | [698844, 2]    | 52       |
+--------------------------------+------------------+----------------+----------+
2025-06-16 03:07:06,164 [INFO ] Val F1: 0.6484
2025-06-16 03:07:06,165 [INFO ] Val Precision: 0.7922
2025-06-16 03:07:06,165 [INFO ] Val Recall: 0.5488
2025-06-16 03:07:06,165 [INFO ] Val Auc: 0.5664
2025-06-16 03:07:06,166 [INFO ] Test F1: 0.3899
2025-06-16 03:07:06,166 [INFO ] Test Precision: 0.7741
2025-06-16 03:07:06,166 [INFO ] Test Recall: 0.2606
…
| │    │    └─(1)ModuleDict      | --               | --             | 24,960   |
| │    └─(batch_norms)ModuleList | --               | --             | 256      |
| │    │    └─(0)ModuleDict      | --               | --             | 128      |
| │    │    └─(1)ModuleDict      | --               | --             | 128      |
| │    └─(emlps)ModuleList       | --               | --             | 66,048   |
| │    │    └─(0)ModuleList      | --               | --             | 33,024   |
| │    │    └─(1)ModuleList      | --               | --             | 33,024   |
| ├─(mlp)Sequential              | [697478, 192]    | [697478, 2]    | 10,977   |
| │    └─(0)Linear               | [697478, 192]    | [697478, 50]   | 9,650    |
| │    └─(1)ReLU                 | [697478, 50]     | [697478, 50]   | --       |
| │    └─(2)Dropout              | [697478, 50]     | [697478, 50]   | --       |
| │    └─(3)Linear               | [697478, 50]     | [697478, 25]   | 1,275    |
| │    └─(4)ReLU                 | [697478, 25]     | [697478, 25]   | --       |
| │    └─(5)Dropout              | [697478, 25]     | [697478, 25]   | --       |
| │    └─(6)Linear               | [697478, 25]     | [697478, 2]    | 52       |
+--------------------------------+------------------+----------------+----------+
2025-06-16 03:11:47,672 [INFO ] Val F1: 0.6480
2025-06-16 03:11:47,673 [INFO ] Val Precision: 0.7922
2025-06-16 03:11:47,674 [INFO ] Val Recall: 0.5483
2025-06-16 03:11:47,674 [INFO ] Val Auc: 0.5671
2025-06-16 03:11:47,674 [INFO ] Test F1: 0.3877
2025-06-16 03:11:47,674 [INFO ] Test Precision: 0.7792
2025-06-16 03:11:47,675 [INFO ] Test Recall: 0.2581
…
| │    │    └─(1)ModuleDict      | --               | --             | 24,960   |
| │    └─(batch_norms)ModuleList | --               | --             | 256      |
| │    │    └─(0)ModuleDict      | --               | --             | 128      |
| │    │    └─(1)ModuleDict      | --               | --             | 128      |
| │    └─(emlps)ModuleList       | --               | --             | 66,048   |
| │    │    └─(0)ModuleList      | --               | --             | 33,024   |
| │    │    └─(1)ModuleList      | --               | --             | 33,024   |
| ├─(mlp)Sequential              | [697520, 192]    | [697520, 2]    | 10,977   |
| │    └─(0)Linear               | [697520, 192]    | [697520, 50]   | 9,650    |
| │    └─(1)ReLU                 | [697520, 50]     | [697520, 50]   | --       |
| │    └─(2)Dropout              | [697520, 50]     | [697520, 50]   | --       |
| │    └─(3)Linear               | [697520, 50]     | [697520, 25]   | 1,275    |
| │    └─(4)ReLU                 | [697520, 25]     | [697520, 25]   | --       |
| │    └─(5)Dropout              | [697520, 25]     | [697520, 25]   | --       |
| │    └─(6)Linear               | [697520, 25]     | [697520, 2]    | 52       |
+--------------------------------+------------------+----------------+----------+
2025-06-16 03:16:12,927 [INFO ] Val F1: 0.6488
2025-06-16 03:16:12,928 [INFO ] Val Precision: 0.7925
2025-06-16 03:16:12,928 [INFO ] Val Recall: 0.5492
2025-06-16 03:16:12,928 [INFO ] Val Auc: 0.5669
2025-06-16 03:16:12,929 [INFO ] Test F1: 0.3809
2025-06-16 03:16:12,929 [INFO ] Test Precision: 0.7687
2025-06-16 03:16:12,929 [INFO ] Test Recall: 0.2532
…
| │    │    └─(1)ModuleDict      | --               | --             | 24,960   |
| │    └─(batch_norms)ModuleList | --               | --             | 256      |
| │    │    └─(0)ModuleDict      | --               | --             | 128      |
| │    │    └─(1)ModuleDict      | --               | --             | 128      |
| │    └─(emlps)ModuleList       | --               | --             | 66,048   |
| │    │    └─(0)ModuleList      | --               | --             | 33,024   |
| │    │    └─(1)ModuleList      | --               | --             | 33,024   |
| ├─(mlp)Sequential              | [700190, 192]    | [700190, 2]    | 10,977   |
| │    └─(0)Linear               | [700190, 192]    | [700190, 50]   | 9,650    |
| │    └─(1)ReLU                 | [700190, 50]     | [700190, 50]   | --       |
| │    └─(2)Dropout              | [700190, 50]     | [700190, 50]   | --       |
| │    └─(3)Linear               | [700190, 50]     | [700190, 25]   | 1,275    |
| │    └─(4)ReLU                 | [700190, 25]     | [700190, 25]   | --       |
| │    └─(5)Dropout              | [700190, 25]     | [700190, 25]   | --       |
| │    └─(6)Linear               | [700190, 25]     | [700190, 2]    | 52       |
+--------------------------------+------------------+----------------+----------+
2025-06-16 03:20:58,095 [INFO ] Val F1: 0.6495
2025-06-16 03:20:58,095 [INFO ] Val Precision: 0.7936
2025-06-16 03:20:58,096 [INFO ] Val Recall: 0.5498
2025-06-16 03:20:58,096 [INFO ] Val Auc: 0.5676
2025-06-16 03:20:58,096 [INFO ] Test F1: 0.3861
2025-06-16 03:20:58,097 [INFO ] Test Precision: 0.7689
2025-06-16 03:20:58,097 [INFO ] Test Recall: 0.2577
…
| │    │    └─(1)ModuleDict      | --               | --             | 24,960   |
| │    └─(batch_norms)ModuleList | --               | --             | 256      |
| │    │    └─(0)ModuleDict      | --               | --             | 128      |
| │    │    └─(1)ModuleDict      | --               | --             | 128      |
| │    └─(emlps)ModuleList       | --               | --             | 66,048   |
| │    │    └─(0)ModuleList      | --               | --             | 33,024   |
| │    │    └─(1)ModuleList      | --               | --             | 33,024   |
| ├─(mlp)Sequential              | [698179, 192]    | [698179, 2]    | 10,977   |
| │    └─(0)Linear               | [698179, 192]    | [698179, 50]   | 9,650    |
| │    └─(1)ReLU                 | [698179, 50]     | [698179, 50]   | --       |
| │    └─(2)Dropout              | [698179, 50]     | [698179, 50]   | --       |
| │    └─(3)Linear               | [698179, 50]     | [698179, 25]   | 1,275    |
| │    └─(4)ReLU                 | [698179, 25]     | [698179, 25]   | --       |
| │    └─(5)Dropout              | [698179, 25]     | [698179, 25]   | --       |
| │    └─(6)Linear               | [698179, 25]     | [698179, 2]    | 52       |
+--------------------------------+------------------+----------------+----------+
2025-06-16 03:25:24,687 [INFO ] Val F1: 0.6480
2025-06-16 03:25:24,688 [INFO ] Val Precision: 0.7922
2025-06-16 03:25:24,688 [INFO ] Val Recall: 0.5483
2025-06-16 03:25:24,689 [INFO ] Val Auc: 0.5673
2025-06-16 03:25:24,689 [INFO ] Test F1: 0.3909
2025-06-16 03:25:24,689 [INFO ] Test Precision: 0.7762
2025-06-16 03:25:24,690 [INFO ] Test Recall: 0.2613
…
| │    │    └─(1)ModuleDict      | --               | --             | 24,960   |
| │    └─(batch_norms)ModuleList | --               | --             | 256      |
| │    │    └─(0)ModuleDict      | --               | --             | 128      |
| │    │    └─(1)ModuleDict      | --               | --             | 128      |
| │    └─(emlps)ModuleList       | --               | --             | 66,048   |
| │    │    └─(0)ModuleList      | --               | --             | 33,024   |
| │    │    └─(1)ModuleList      | --               | --             | 33,024   |
| ├─(mlp)Sequential              | [700758, 192]    | [700758, 2]    | 10,977   |
| │    └─(0)Linear               | [700758, 192]    | [700758, 50]   | 9,650    |
| │    └─(1)ReLU                 | [700758, 50]     | [700758, 50]   | --       |
| │    └─(2)Dropout              | [700758, 50]     | [700758, 50]   | --       |
| │    └─(3)Linear               | [700758, 50]     | [700758, 25]   | 1,275    |
| │    └─(4)ReLU                 | [700758, 25]     | [700758, 25]   | --       |
| │    └─(5)Dropout              | [700758, 25]     | [700758, 25]   | --       |
| │    └─(6)Linear               | [700758, 25]     | [700758, 2]    | 52       |
+--------------------------------+------------------+----------------+----------+
2025-06-16 03:29:19,815 [INFO ] Val F1: 0.6476
2025-06-16 03:29:19,816 [INFO ] Val Precision: 0.7919
2025-06-16 03:29:19,816 [INFO ] Val Recall: 0.5478
2025-06-16 03:29:19,816 [INFO ] Val Auc: 0.5667
2025-06-16 03:29:19,817 [INFO ] Test F1: 0.3559
2025-06-16 03:29:19,817 [INFO ] Test Precision: 0.7375
2025-06-16 03:29:19,817 [INFO ] Test Recall: 0.2346
…
| │    │    └─(1)ModuleDict      | --               | --             | 24,960   |
| │    └─(batch_norms)ModuleList | --               | --             | 256      |
| │    │    └─(0)ModuleDict      | --               | --             | 128      |
| │    │    └─(1)ModuleDict      | --               | --             | 128      |
| │    └─(emlps)ModuleList       | --               | --             | 66,048   |
| │    │    └─(0)ModuleList      | --               | --             | 33,024   |
| │    │    └─(1)ModuleList      | --               | --             | 33,024   |
| ├─(mlp)Sequential              | [702074, 192]    | [702074, 2]    | 10,977   |
| │    └─(0)Linear               | [702074, 192]    | [702074, 50]   | 9,650    |
| │    └─(1)ReLU                 | [702074, 50]     | [702074, 50]   | --       |
| │    └─(2)Dropout              | [702074, 50]     | [702074, 50]   | --       |
| │    └─(3)Linear               | [702074, 50]     | [702074, 25]   | 1,275    |
| │    └─(4)ReLU                 | [702074, 25]     | [702074, 25]   | --       |
| │    └─(5)Dropout              | [702074, 25]     | [702074, 25]   | --       |
| │    └─(6)Linear               | [702074, 25]     | [702074, 2]    | 52       |
+--------------------------------+------------------+----------------+----------+
2025-06-16 03:33:26,179 [INFO ] Val F1: 0.6488
2025-06-16 03:33:26,180 [INFO ] Val Precision: 0.7925
2025-06-16 03:33:26,180 [INFO ] Val Recall: 0.5492
2025-06-16 03:33:26,180 [INFO ] Val Auc: 0.5678
2025-06-16 03:33:26,181 [INFO ] Test F1: 0.3482
2025-06-16 03:33:26,181 [INFO ] Test Precision: 0.7268
2025-06-16 03:33:26,181 [INFO ] Test Recall: 0.2289
…
| │    │    └─(1)ModuleDict      | --               | --             | 24,960   |
| │    └─(batch_norms)ModuleList | --               | --             | 256      |
| │    │    └─(0)ModuleDict      | --               | --             | 128      |
| │    │    └─(1)ModuleDict      | --               | --             | 128      |
| │    └─(emlps)ModuleList       | --               | --             | 66,048   |
| │    │    └─(0)ModuleList      | --               | --             | 33,024   |
| │    │    └─(1)ModuleList      | --               | --             | 33,024   |
| ├─(mlp)Sequential              | [707035, 192]    | [707035, 2]    | 10,977   |
| │    └─(0)Linear               | [707035, 192]    | [707035, 50]   | 9,650    |
| │    └─(1)ReLU                 | [707035, 50]     | [707035, 50]   | --       |
| │    └─(2)Dropout              | [707035, 50]     | [707035, 50]   | --       |
| │    └─(3)Linear               | [707035, 50]     | [707035, 25]   | 1,275    |
| │    └─(4)ReLU                 | [707035, 25]     | [707035, 25]   | --       |
| │    └─(5)Dropout              | [707035, 25]     | [707035, 25]   | --       |
| │    └─(6)Linear               | [707035, 25]     | [707035, 2]    | 52       |
+--------------------------------+------------------+----------------+----------+
2025-06-16 03:37:23,860 [INFO ] Val F1: 0.6492
2025-06-16 03:37:23,861 [INFO ] Val Precision: 0.7925
2025-06-16 03:37:23,861 [INFO ] Val Recall: 0.5498
2025-06-16 03:37:23,862 [INFO ] Val Auc: 0.5682
2025-06-16 03:37:23,862 [INFO ] Test F1: 0.3433
2025-06-16 03:37:23,862 [INFO ] Test Precision: 0.7219
2025-06-16 03:37:23,862 [INFO ] Test Recall: 0.2252
…
| │    │    └─(1)ModuleDict      | --               | --             | 24,960   |
| │    └─(batch_norms)ModuleList | --               | --             | 256      |
| │    │    └─(0)ModuleDict      | --               | --             | 128      |
| │    │    └─(1)ModuleDict      | --               | --             | 128      |
| │    └─(emlps)ModuleList       | --               | --             | 66,048   |
| │    │    └─(0)ModuleList      | --               | --             | 33,024   |
| │    │    └─(1)ModuleList      | --               | --             | 33,024   |
| ├─(mlp)Sequential              | [699259, 192]    | [699259, 2]    | 10,977   |
| │    └─(0)Linear               | [699259, 192]    | [699259, 50]   | 9,650    |
| │    └─(1)ReLU                 | [699259, 50]     | [699259, 50]   | --       |
| │    └─(2)Dropout              | [699259, 50]     | [699259, 50]   | --       |
| │    └─(3)Linear               | [699259, 50]     | [699259, 25]   | 1,275    |
| │    └─(4)ReLU                 | [699259, 25]     | [699259, 25]   | --       |
| │    └─(5)Dropout              | [699259, 25]     | [699259, 25]   | --       |
| │    └─(6)Linear               | [699259, 25]     | [699259, 2]    | 52       |
+--------------------------------+------------------+----------------+----------+
2025-06-16 03:41:27,568 [INFO ] Val F1: 0.6492
2025-06-16 03:41:27,569 [INFO ] Val Precision: 0.7925
2025-06-16 03:41:27,569 [INFO ] Val Recall: 0.5498
2025-06-16 03:41:27,570 [INFO ] Val Auc: 0.5683
2025-06-16 03:41:27,570 [INFO ] Test F1: 0.3410
2025-06-16 03:41:27,570 [INFO ] Test Precision: 0.7185
2025-06-16 03:41:27,571 [INFO ] Test Recall: 0.2235
…
| │    │    └─(1)ModuleDict      | --               | --             | 24,960   |
| │    └─(batch_norms)ModuleList | --               | --             | 256      |
| │    │    └─(0)ModuleDict      | --               | --             | 128      |
| │    │    └─(1)ModuleDict      | --               | --             | 128      |
| │    └─(emlps)ModuleList       | --               | --             | 66,048   |
| │    │    └─(0)ModuleList      | --               | --             | 33,024   |
| │    │    └─(1)ModuleList      | --               | --             | 33,024   |
| ├─(mlp)Sequential              | [696431, 192]    | [696431, 2]    | 10,977   |
| │    └─(0)Linear               | [696431, 192]    | [696431, 50]   | 9,650    |
| │    └─(1)ReLU                 | [696431, 50]     | [696431, 50]   | --       |
| │    └─(2)Dropout              | [696431, 50]     | [696431, 50]   | --       |
| │    └─(3)Linear               | [696431, 50]     | [696431, 25]   | 1,275    |
| │    └─(4)ReLU                 | [696431, 25]     | [696431, 25]   | --       |
| │    └─(5)Dropout              | [696431, 25]     | [696431, 25]   | --       |
| │    └─(6)Linear               | [696431, 25]     | [696431, 2]    | 52       |
+--------------------------------+------------------+----------------+----------+
2025-06-16 03:46:05,332 [INFO ] Val F1: 0.6484
2025-06-16 03:46:05,333 [INFO ] Val Precision: 0.7922
2025-06-16 03:46:05,333 [INFO ] Val Recall: 0.5488
2025-06-16 03:46:05,334 [INFO ] Val Auc: 0.5675
2025-06-16 03:46:05,334 [INFO ] Test F1: 0.3381
2025-06-16 03:46:05,334 [INFO ] Test Precision: 0.7464
2025-06-16 03:46:05,334 [INFO ] Test Recall: 0.2185
…
| │    │    └─(1)ModuleDict      | --               | --             | 24,960   |
| │    └─(batch_norms)ModuleList | --               | --             | 256      |
| │    │    └─(0)ModuleDict      | --               | --             | 128      |
| │    │    └─(1)ModuleDict      | --               | --             | 128      |
| │    └─(emlps)ModuleList       | --               | --             | 66,048   |
| │    │    └─(0)ModuleList      | --               | --             | 33,024   |
| │    │    └─(1)ModuleList      | --               | --             | 33,024   |
| ├─(mlp)Sequential              | [696422, 192]    | [696422, 2]    | 10,977   |
| │    └─(0)Linear               | [696422, 192]    | [696422, 50]   | 9,650    |
| │    └─(1)ReLU                 | [696422, 50]     | [696422, 50]   | --       |
| │    └─(2)Dropout              | [696422, 50]     | [696422, 50]   | --       |
| │    └─(3)Linear               | [696422, 50]     | [696422, 25]   | 1,275    |
| │    └─(4)ReLU                 | [696422, 25]     | [696422, 25]   | --       |
| │    └─(5)Dropout              | [696422, 25]     | [696422, 25]   | --       |
| │    └─(6)Linear               | [696422, 25]     | [696422, 2]    | 52       |
+--------------------------------+------------------+----------------+----------+
2025-06-16 03:50:58,910 [INFO ] Val F1: 0.6480
2025-06-16 03:50:58,911 [INFO ] Val Precision: 0.7922
2025-06-16 03:50:58,911 [INFO ] Val Recall: 0.5483
2025-06-16 03:50:58,911 [INFO ] Val Auc: 0.5668
2025-06-16 03:50:58,912 [INFO ] Test F1: 0.3383
2025-06-16 03:50:58,912 [INFO ] Test Precision: 0.7429
2025-06-16 03:50:58,912 [INFO ] Test Recall: 0.2190
…
| │    │    └─(1)ModuleDict      | --               | --             | 24,960   |
| │    └─(batch_norms)ModuleList | --               | --             | 256      |
| │    │    └─(0)ModuleDict      | --               | --             | 128      |
| │    │    └─(1)ModuleDict      | --               | --             | 128      |
| │    └─(emlps)ModuleList       | --               | --             | 66,048   |
| │    │    └─(0)ModuleList      | --               | --             | 33,024   |
| │    │    └─(1)ModuleList      | --               | --             | 33,024   |
| ├─(mlp)Sequential              | [702465, 192]    | [702465, 2]    | 10,977   |
| │    └─(0)Linear               | [702465, 192]    | [702465, 50]   | 9,650    |
| │    └─(1)ReLU                 | [702465, 50]     | [702465, 50]   | --       |
| │    └─(2)Dropout              | [702465, 50]     | [702465, 50]   | --       |
| │    └─(3)Linear               | [702465, 50]     | [702465, 25]   | 1,275    |
| │    └─(4)ReLU                 | [702465, 25]     | [702465, 25]   | --       |
| │    └─(5)Dropout              | [702465, 25]     | [702465, 25]   | --       |
| │    └─(6)Linear               | [702465, 25]     | [702465, 2]    | 52       |
+--------------------------------+------------------+----------------+----------+
2025-06-16 03:55:45,214 [INFO ] Val F1: 0.6488
2025-06-16 03:55:45,215 [INFO ] Val Precision: 0.7925
2025-06-16 03:55:45,216 [INFO ] Val Recall: 0.5492
2025-06-16 03:55:45,216 [INFO ] Val Auc: 0.5665
2025-06-16 03:55:45,216 [INFO ] Test F1: 0.2769
2025-06-16 03:55:45,217 [INFO ] Test Precision: 0.6367
2025-06-16 03:55:45,217 [INFO ] Test Recall: 0.1769
…
| │    │    └─(1)ModuleDict      | --               | --             | 24,960   |
| │    └─(batch_norms)ModuleList | --               | --             | 256      |
| │    │    └─(0)ModuleDict      | --               | --             | 128      |
| │    │    └─(1)ModuleDict      | --               | --             | 128      |
| │    └─(emlps)ModuleList       | --               | --             | 66,048   |
| │    │    └─(0)ModuleList      | --               | --             | 33,024   |
| │    │    └─(1)ModuleList      | --               | --             | 33,024   |
| ├─(mlp)Sequential              | [692773, 192]    | [692773, 2]    | 10,977   |
| │    └─(0)Linear               | [692773, 192]    | [692773, 50]   | 9,650    |
| │    └─(1)ReLU                 | [692773, 50]     | [692773, 50]   | --       |
| │    └─(2)Dropout              | [692773, 50]     | [692773, 50]   | --       |
| │    └─(3)Linear               | [692773, 50]     | [692773, 25]   | 1,275    |
| │    └─(4)ReLU                 | [692773, 25]     | [692773, 25]   | --       |
| │    └─(5)Dropout              | [692773, 25]     | [692773, 25]   | --       |
| │    └─(6)Linear               | [692773, 25]     | [692773, 2]    | 52       |
+--------------------------------+------------------+----------------+----------+
2025-06-16 04:00:38,656 [INFO ] Val F1: 0.6484
2025-06-16 04:00:38,657 [INFO ] Val Precision: 0.7933
2025-06-16 04:00:38,657 [INFO ] Val Recall: 0.5483
2025-06-16 04:00:38,657 [INFO ] Val Auc: 0.5666
2025-06-16 04:00:38,658 [INFO ] Test F1: 0.2824
2025-06-16 04:00:38,658 [INFO ] Test Precision: 0.6528
2025-06-16 04:00:38,658 [INFO ] Test Recall: 0.1802
…
| │    │    └─(1)ModuleDict      | --               | --             | 24,960   |
| │    └─(batch_norms)ModuleList | --               | --             | 256      |
| │    │    └─(0)ModuleDict      | --               | --             | 128      |
| │    │    └─(1)ModuleDict      | --               | --             | 128      |
| │    └─(emlps)ModuleList       | --               | --             | 66,048   |
| │    │    └─(0)ModuleList      | --               | --             | 33,024   |
| │    │    └─(1)ModuleList      | --               | --             | 33,024   |
| ├─(mlp)Sequential              | [701718, 192]    | [701718, 2]    | 10,977   |
| │    └─(0)Linear               | [701718, 192]    | [701718, 50]   | 9,650    |
| │    └─(1)ReLU                 | [701718, 50]     | [701718, 50]   | --       |
| │    └─(2)Dropout              | [701718, 50]     | [701718, 50]   | --       |
| │    └─(3)Linear               | [701718, 50]     | [701718, 25]   | 1,275    |
| │    └─(4)ReLU                 | [701718, 25]     | [701718, 25]   | --       |
| │    └─(5)Dropout              | [701718, 25]     | [701718, 25]   | --       |
| │    └─(6)Linear               | [701718, 25]     | [701718, 2]    | 52       |
+--------------------------------+------------------+----------------+----------+
2025-06-16 04:05:21,724 [INFO ] Val F1: 0.6484
2025-06-16 04:05:21,725 [INFO ] Val Precision: 0.7922
2025-06-16 04:05:21,725 [INFO ] Val Recall: 0.5488
2025-06-16 04:05:21,726 [INFO ] Val Auc: 0.5678
2025-06-16 04:05:21,726 [INFO ] Test F1: 0.2790
2025-06-16 04:05:21,726 [INFO ] Test Precision: 0.6179
2025-06-16 04:05:21,726 [INFO ] Test Recall: 0.1802
…
| │    │    └─(1)ModuleDict      | --               | --             | 24,960   |
| │    └─(batch_norms)ModuleList | --               | --             | 256      |
| │    │    └─(0)ModuleDict      | --               | --             | 128      |
| │    │    └─(1)ModuleDict      | --               | --             | 128      |
| │    └─(emlps)ModuleList       | --               | --             | 66,048   |
| │    │    └─(0)ModuleList      | --               | --             | 33,024   |
| │    │    └─(1)ModuleList      | --               | --             | 33,024   |
| ├─(mlp)Sequential              | [707043, 192]    | [707043, 2]    | 10,977   |
| │    └─(0)Linear               | [707043, 192]    | [707043, 50]   | 9,650    |
| │    └─(1)ReLU                 | [707043, 50]     | [707043, 50]   | --       |
| │    └─(2)Dropout              | [707043, 50]     | [707043, 50]   | --       |
| │    └─(3)Linear               | [707043, 50]     | [707043, 25]   | 1,275    |
| │    └─(4)ReLU                 | [707043, 25]     | [707043, 25]   | --       |
| │    └─(5)Dropout              | [707043, 25]     | [707043, 25]   | --       |
| │    └─(6)Linear               | [707043, 25]     | [707043, 2]    | 52       |
+--------------------------------+------------------+----------------+----------+
2025-06-16 04:09:20,453 [INFO ] Val F1: 0.6476
2025-06-16 04:09:20,454 [INFO ] Val Precision: 0.7919
2025-06-16 04:09:20,454 [INFO ] Val Recall: 0.5478
2025-06-16 04:09:20,454 [INFO ] Val Auc: 0.5665
2025-06-16 04:09:20,454 [INFO ] Test F1: 0.2792
2025-06-16 04:09:20,455 [INFO ] Test Precision: 0.6453
2025-06-16 04:09:20,455 [INFO ] Test Recall: 0.1781
…
| │    │    └─(1)ModuleDict      | --               | --             | 24,960   |
| │    └─(batch_norms)ModuleList | --               | --             | 256      |
| │    │    └─(0)ModuleDict      | --               | --             | 128      |
| │    │    └─(1)ModuleDict      | --               | --             | 128      |
| │    └─(emlps)ModuleList       | --               | --             | 66,048   |
| │    │    └─(0)ModuleList      | --               | --             | 33,024   |
| │    │    └─(1)ModuleList      | --               | --             | 33,024   |
| ├─(mlp)Sequential              | [708010, 192]    | [708010, 2]    | 10,977   |
| │    └─(0)Linear               | [708010, 192]    | [708010, 50]   | 9,650    |
| │    └─(1)ReLU                 | [708010, 50]     | [708010, 50]   | --       |
| │    └─(2)Dropout              | [708010, 50]     | [708010, 50]   | --       |
| │    └─(3)Linear               | [708010, 50]     | [708010, 25]   | 1,275    |
| │    └─(4)ReLU                 | [708010, 25]     | [708010, 25]   | --       |
| │    └─(5)Dropout              | [708010, 25]     | [708010, 25]   | --       |
| │    └─(6)Linear               | [708010, 25]     | [708010, 2]    | 52       |
+--------------------------------+------------------+----------------+----------+
2025-06-16 04:17:18,234 [INFO ] Val F1: 0.6480
2025-06-16 04:17:18,235 [INFO ] Val Precision: 0.7922
2025-06-16 04:17:18,235 [INFO ] Val Recall: 0.5483
2025-06-16 04:17:18,235 [INFO ] Val Auc: 0.5665
2025-06-16 04:17:18,236 [INFO ] Test F1: 0.2799
2025-06-16 04:17:18,236 [INFO ] Test Precision: 0.6223
2025-06-16 04:17:18,236 [INFO ] Test Recall: 0.1806
…
| │    │    └─(1)ModuleDict      | --               | --             | 24,960   |
| │    └─(batch_norms)ModuleList | --               | --             | 256      |
| │    │    └─(0)ModuleDict      | --               | --             | 128      |
| │    │    └─(1)ModuleDict      | --               | --             | 128      |
| │    └─(emlps)ModuleList       | --               | --             | 66,048   |
| │    │    └─(0)ModuleList      | --               | --             | 33,024   |
| │    │    └─(1)ModuleList      | --               | --             | 33,024   |
| ├─(mlp)Sequential              | [705060, 192]    | [705060, 2]    | 10,977   |
| │    └─(0)Linear               | [705060, 192]    | [705060, 50]   | 9,650    |
| │    └─(1)ReLU                 | [705060, 50]     | [705060, 50]   | --       |
| │    └─(2)Dropout              | [705060, 50]     | [705060, 50]   | --       |
| │    └─(3)Linear               | [705060, 50]     | [705060, 25]   | 1,275    |
| │    └─(4)ReLU                 | [705060, 25]     | [705060, 25]   | --       |
| │    └─(5)Dropout              | [705060, 25]     | [705060, 25]   | --       |
| │    └─(6)Linear               | [705060, 25]     | [705060, 2]    | 52       |
+--------------------------------+------------------+----------------+----------+
2025-06-16 04:21:27,681 [INFO ] Val F1: 0.6488
2025-06-16 04:21:27,682 [INFO ] Val Precision: 0.7914
2025-06-16 04:21:27,682 [INFO ] Val Recall: 0.5498
2025-06-16 04:21:27,682 [INFO ] Val Auc: 0.5675
2025-06-16 04:21:27,683 [INFO ] Test F1: 0.2195
2025-06-16 04:21:27,683 [INFO ] Test Precision: 0.5761
2025-06-16 04:21:27,683 [INFO ] Test Recall: 0.1355
…
| │    │    └─(1)ModuleDict      | --               | --             | 24,960   |
| │    └─(batch_norms)ModuleList | --               | --             | 256      |
| │    │    └─(0)ModuleDict      | --               | --             | 128      |
| │    │    └─(1)ModuleDict      | --               | --             | 128      |
| │    └─(emlps)ModuleList       | --               | --             | 66,048   |
| │    │    └─(0)ModuleList      | --               | --             | 33,024   |
| │    │    └─(1)ModuleList      | --               | --             | 33,024   |
| ├─(mlp)Sequential              | [703164, 192]    | [703164, 2]    | 10,977   |
| │    └─(0)Linear               | [703164, 192]    | [703164, 50]   | 9,650    |
| │    └─(1)ReLU                 | [703164, 50]     | [703164, 50]   | --       |
| │    └─(2)Dropout              | [703164, 50]     | [703164, 50]   | --       |
| │    └─(3)Linear               | [703164, 50]     | [703164, 25]   | 1,275    |
| │    └─(4)ReLU                 | [703164, 25]     | [703164, 25]   | --       |
| │    └─(5)Dropout              | [703164, 25]     | [703164, 25]   | --       |
| │    └─(6)Linear               | [703164, 25]     | [703164, 2]    | 52       |
+--------------------------------+------------------+----------------+----------+
2025-06-16 04:25:32,455 [INFO ] Val F1: 0.6480
2025-06-16 04:25:32,455 [INFO ] Val Precision: 0.7922
2025-06-16 04:25:32,456 [INFO ] Val Recall: 0.5483
2025-06-16 04:25:32,456 [INFO ] Val Auc: 0.5657
2025-06-16 04:25:32,457 [INFO ] Test F1: 0.1851
2025-06-16 04:25:32,457 [INFO ] Test Precision: 0.5146
2025-06-16 04:25:32,457 [INFO ] Test Recall: 0.1128
…
| │    │    └─(1)ModuleDict      | --               | --             | 24,960   |
| │    └─(batch_norms)ModuleList | --               | --             | 256      |
| │    │    └─(0)ModuleDict      | --               | --             | 128      |
| │    │    └─(1)ModuleDict      | --               | --             | 128      |
| │    └─(emlps)ModuleList       | --               | --             | 66,048   |
| │    │    └─(0)ModuleList      | --               | --             | 33,024   |
| │    │    └─(1)ModuleList      | --               | --             | 33,024   |
| ├─(mlp)Sequential              | [692722, 192]    | [692722, 2]    | 10,977   |
| │    └─(0)Linear               | [692722, 192]    | [692722, 50]   | 9,650    |
| │    └─(1)ReLU                 | [692722, 50]     | [692722, 50]   | --       |
| │    └─(2)Dropout              | [692722, 50]     | [692722, 50]   | --       |
| │    └─(3)Linear               | [692722, 50]     | [692722, 25]   | 1,275    |
| │    └─(4)ReLU                 | [692722, 25]     | [692722, 25]   | --       |
| │    └─(5)Dropout              | [692722, 25]     | [692722, 25]   | --       |
| │    └─(6)Linear               | [692722, 25]     | [692722, 2]    | 52       |
+--------------------------------+------------------+----------------+----------+
2025-06-16 04:29:31,693 [INFO ] Val F1: 0.6484
2025-06-16 04:29:31,694 [INFO ] Val Precision: 0.7933
2025-06-16 04:29:31,694 [INFO ] Val Recall: 0.5483
2025-06-16 04:29:31,694 [INFO ] Val Auc: 0.5668
2025-06-16 04:29:31,695 [INFO ] Test F1: 0.1902
2025-06-16 04:29:31,695 [INFO ] Test Precision: 0.5260
2025-06-16 04:29:31,695 [INFO ] Test Recall: 0.1161
…
| │    │    └─(1)ModuleDict      | --               | --             | 24,960   |
| │    └─(batch_norms)ModuleList | --               | --             | 256      |
| │    │    └─(0)ModuleDict      | --               | --             | 128      |
| │    │    └─(1)ModuleDict      | --               | --             | 128      |
| │    └─(emlps)ModuleList       | --               | --             | 66,048   |
| │    │    └─(0)ModuleList      | --               | --             | 33,024   |
| │    │    └─(1)ModuleList      | --               | --             | 33,024   |
| ├─(mlp)Sequential              | [694028, 192]    | [694028, 2]    | 10,977   |
| │    └─(0)Linear               | [694028, 192]    | [694028, 50]   | 9,650    |
| │    └─(1)ReLU                 | [694028, 50]     | [694028, 50]   | --       |
| │    └─(2)Dropout              | [694028, 50]     | [694028, 50]   | --       |
| │    └─(3)Linear               | [694028, 50]     | [694028, 25]   | 1,275    |
| │    └─(4)ReLU                 | [694028, 25]     | [694028, 25]   | --       |
| │    └─(5)Dropout              | [694028, 25]     | [694028, 25]   | --       |
| │    └─(6)Linear               | [694028, 25]     | [694028, 2]    | 52       |
+--------------------------------+------------------+----------------+----------+
2025-06-16 04:33:36,990 [INFO ] Val F1: 0.6496
2025-06-16 04:33:36,991 [INFO ] Val Precision: 0.7928
2025-06-16 04:33:36,991 [INFO ] Val Recall: 0.5502
2025-06-16 04:33:36,991 [INFO ] Val Auc: 0.5672
2025-06-16 04:33:36,992 [INFO ] Test F1: 0.1950
2025-06-16 04:33:36,992 [INFO ] Test Precision: 0.5109
2025-06-16 04:33:36,992 [INFO ] Test Recall: 0.1205
…
| │    │    └─(1)ModuleDict      | --               | --             | 24,960   |
| │    └─(batch_norms)ModuleList | --               | --             | 256      |
| │    │    └─(0)ModuleDict      | --               | --             | 128      |
| │    │    └─(1)ModuleDict      | --               | --             | 128      |
| │    └─(emlps)ModuleList       | --               | --             | 66,048   |
| │    │    └─(0)ModuleList      | --               | --             | 33,024   |
| │    │    └─(1)ModuleList      | --               | --             | 33,024   |
| ├─(mlp)Sequential              | [701020, 192]    | [701020, 2]    | 10,977   |
| │    └─(0)Linear               | [701020, 192]    | [701020, 50]   | 9,650    |
| │    └─(1)ReLU                 | [701020, 50]     | [701020, 50]   | --       |
| │    └─(2)Dropout              | [701020, 50]     | [701020, 50]   | --       |
| │    └─(3)Linear               | [701020, 50]     | [701020, 25]   | 1,275    |
| │    └─(4)ReLU                 | [701020, 25]     | [701020, 25]   | --       |
| │    └─(5)Dropout              | [701020, 25]     | [701020, 25]   | --       |
| │    └─(6)Linear               | [701020, 25]     | [701020, 2]    | 52       |
+--------------------------------+------------------+----------------+----------+
2025-06-16 04:37:41,822 [INFO ] Val F1: 0.6473
2025-06-16 04:37:41,824 [INFO ] Val Precision: 0.7919
2025-06-16 04:37:41,824 [INFO ] Val Recall: 0.5473
2025-06-16 04:37:41,824 [INFO ] Val Auc: 0.5661
2025-06-16 04:37:41,825 [INFO ] Test F1: 0.2067
2025-06-16 04:37:41,825 [INFO ] Test Precision: 0.5440
2025-06-16 04:37:41,825 [INFO ] Test Recall: 0.1276
…
| │    │    └─(1)ModuleDict      | --               | --             | 24,960   |
| │    └─(batch_norms)ModuleList | --               | --             | 256      |
| │    │    └─(0)ModuleDict      | --               | --             | 128      |
| │    │    └─(1)ModuleDict      | --               | --             | 128      |
| │    └─(emlps)ModuleList       | --               | --             | 66,048   |
| │    │    └─(0)ModuleList      | --               | --             | 33,024   |
| │    │    └─(1)ModuleList      | --               | --             | 33,024   |
| ├─(mlp)Sequential              | [703316, 192]    | [703316, 2]    | 10,977   |
| │    └─(0)Linear               | [703316, 192]    | [703316, 50]   | 9,650    |
| │    └─(1)ReLU                 | [703316, 50]     | [703316, 50]   | --       |
| │    └─(2)Dropout              | [703316, 50]     | [703316, 50]   | --       |
| │    └─(3)Linear               | [703316, 50]     | [703316, 25]   | 1,275    |
| │    └─(4)ReLU                 | [703316, 25]     | [703316, 25]   | --       |
| │    └─(5)Dropout              | [703316, 25]     | [703316, 25]   | --       |
| │    └─(6)Linear               | [703316, 25]     | [703316, 2]    | 52       |
+--------------------------------+------------------+----------------+----------+
2025-06-16 04:41:37,292 [INFO ] Val F1: 0.6484
2025-06-16 04:41:37,293 [INFO ] Val Precision: 0.7922
2025-06-16 04:41:37,293 [INFO ] Val Recall: 0.5488
2025-06-16 04:41:37,293 [INFO ] Val Auc: 0.5677
2025-06-16 04:41:37,293 [INFO ] Test F1: 0.1735
2025-06-16 04:41:37,294 [INFO ] Test Precision: 0.5062
2025-06-16 04:41:37,294 [INFO ] Test Recall: 0.1047
…
| │    │    └─(1)ModuleDict      | --               | --             | 24,320   |
| │    └─(batch_norms)ModuleList | --               | --             | 80       |
| │    │    └─(0)ModuleDict      | --               | --             | 40       |
| │    │    └─(1)ModuleDict      | --               | --             | 40       |
| │    └─(emlps)ModuleList       | --               | --             | 6,560    |
| │    │    └─(0)ModuleList      | --               | --             | 3,280    |
| │    │    └─(1)ModuleList      | --               | --             | 3,280    |
| ├─(mlp)Sequential              | [702296, 60]     | [702296, 2]    | 4,377    |
| │    └─(0)Linear               | [702296, 60]     | [702296, 50]   | 3,050    |
| │    └─(1)ReLU                 | [702296, 50]     | [702296, 50]   | --       |
| │    └─(2)Dropout              | [702296, 50]     | [702296, 50]   | --       |
| │    └─(3)Linear               | [702296, 50]     | [702296, 25]   | 1,275    |
| │    └─(4)ReLU                 | [702296, 25]     | [702296, 25]   | --       |
| │    └─(5)Dropout              | [702296, 25]     | [702296, 25]   | --       |
| │    └─(6)Linear               | [702296, 25]     | [702296, 2]    | 52       |
+--------------------------------+------------------+----------------+----------+
2025-06-16 04:47:16,029 [INFO ] Val F1: 0.6667
2025-06-16 04:47:16,030 [INFO ] Val Precision: 0.8097
2025-06-16 04:47:16,030 [INFO ] Val Recall: 0.5666
2025-06-16 04:47:16,031 [INFO ] Val Auc: 0.6148
2025-06-16 04:47:16,031 [INFO ] Test F1: 0.1565
2025-06-16 04:47:16,031 [INFO ] Test Precision: 0.0952
2025-06-16 04:47:16,031 [INFO ] Test Recall: 0.4387
…
| │    │    └─(1)ModuleDict      | --               | --             | 24,320   |
| │    └─(batch_norms)ModuleList | --               | --             | 80       |
| │    │    └─(0)ModuleDict      | --               | --             | 40       |
| │    │    └─(1)ModuleDict      | --               | --             | 40       |
| │    └─(emlps)ModuleList       | --               | --             | 6,560    |
| │    │    └─(0)ModuleList      | --               | --             | 3,280    |
| │    │    └─(1)ModuleList      | --               | --             | 3,280    |
| ├─(mlp)Sequential              | [700227, 60]     | [700227, 2]    | 4,377    |
| │    └─(0)Linear               | [700227, 60]     | [700227, 50]   | 3,050    |
| │    └─(1)ReLU                 | [700227, 50]     | [700227, 50]   | --       |
| │    └─(2)Dropout              | [700227, 50]     | [700227, 50]   | --       |
| │    └─(3)Linear               | [700227, 50]     | [700227, 25]   | 1,275    |
| │    └─(4)ReLU                 | [700227, 25]     | [700227, 25]   | --       |
| │    └─(5)Dropout              | [700227, 25]     | [700227, 25]   | --       |
| │    └─(6)Linear               | [700227, 25]     | [700227, 2]    | 52       |
+--------------------------------+------------------+----------------+----------+
2025-06-16 04:52:47,399 [INFO ] Val F1: 0.6652
2025-06-16 04:52:47,400 [INFO ] Val Precision: 0.8091
2025-06-16 04:52:47,400 [INFO ] Val Recall: 0.5647
2025-06-16 04:52:47,400 [INFO ] Val Auc: 0.6149
2025-06-16 04:52:47,401 [INFO ] Test F1: 0.1560
2025-06-16 04:52:47,401 [INFO ] Test Precision: 0.0949
2025-06-16 04:52:47,401 [INFO ] Test Recall: 0.4380
…
| │    │    └─(1)ModuleDict      | --               | --             | 24,320   |
| │    └─(batch_norms)ModuleList | --               | --             | 80       |
| │    │    └─(0)ModuleDict      | --               | --             | 40       |
| │    │    └─(1)ModuleDict      | --               | --             | 40       |
| │    └─(emlps)ModuleList       | --               | --             | 6,560    |
| │    │    └─(0)ModuleList      | --               | --             | 3,280    |
| │    │    └─(1)ModuleList      | --               | --             | 3,280    |
| ├─(mlp)Sequential              | [700455, 60]     | [700455, 2]    | 4,377    |
| │    └─(0)Linear               | [700455, 60]     | [700455, 50]   | 3,050    |
| │    └─(1)ReLU                 | [700455, 50]     | [700455, 50]   | --       |
| │    └─(2)Dropout              | [700455, 50]     | [700455, 50]   | --       |
| │    └─(3)Linear               | [700455, 50]     | [700455, 25]   | 1,275    |
| │    └─(4)ReLU                 | [700455, 25]     | [700455, 25]   | --       |
| │    └─(5)Dropout              | [700455, 25]     | [700455, 25]   | --       |
| │    └─(6)Linear               | [700455, 25]     | [700455, 2]    | 52       |
+--------------------------------+------------------+----------------+----------+
2025-06-16 04:58:51,221 [INFO ] Val F1: 0.6648
2025-06-16 04:58:51,222 [INFO ] Val Precision: 0.8080
2025-06-16 04:58:51,222 [INFO ] Val Recall: 0.5647
2025-06-16 04:58:51,223 [INFO ] Val Auc: 0.6143
2025-06-16 04:58:51,223 [INFO ] Test F1: 0.1559
2025-06-16 04:58:51,223 [INFO ] Test Precision: 0.0949
2025-06-16 04:58:51,224 [INFO ] Test Recall: 0.4360
…
| │    │    └─(1)ModuleDict      | --               | --             | 24,320   |
| │    └─(batch_norms)ModuleList | --               | --             | 80       |
| │    │    └─(0)ModuleDict      | --               | --             | 40       |
| │    │    └─(1)ModuleDict      | --               | --             | 40       |
| │    └─(emlps)ModuleList       | --               | --             | 6,560    |
| │    │    └─(0)ModuleList      | --               | --             | 3,280    |
| │    │    └─(1)ModuleList      | --               | --             | 3,280    |
| ├─(mlp)Sequential              | [701600, 60]     | [701600, 2]    | 4,377    |
| │    └─(0)Linear               | [701600, 60]     | [701600, 50]   | 3,050    |
| │    └─(1)ReLU                 | [701600, 50]     | [701600, 50]   | --       |
| │    └─(2)Dropout              | [701600, 50]     | [701600, 50]   | --       |
| │    └─(3)Linear               | [701600, 50]     | [701600, 25]   | 1,275    |
| │    └─(4)ReLU                 | [701600, 25]     | [701600, 25]   | --       |
| │    └─(5)Dropout              | [701600, 25]     | [701600, 25]   | --       |
| │    └─(6)Linear               | [701600, 25]     | [701600, 2]    | 52       |
+--------------------------------+------------------+----------------+----------+
2025-06-16 05:04:45,684 [INFO ] Val F1: 0.6652
2025-06-16 05:04:45,684 [INFO ] Val Precision: 0.8091
2025-06-16 05:04:45,684 [INFO ] Val Recall: 0.5647
2025-06-16 05:04:45,685 [INFO ] Val Auc: 0.6133
2025-06-16 05:04:45,685 [INFO ] Test F1: 0.1582
2025-06-16 05:04:45,686 [INFO ] Test Precision: 0.0963
2025-06-16 05:04:45,686 [INFO ] Test Recall: 0.4436
…
| │    │    └─(1)ModuleDict      | --               | --             | 24,320   |
| │    └─(batch_norms)ModuleList | --               | --             | 80       |
| │    │    └─(0)ModuleDict      | --               | --             | 40       |
| │    │    └─(1)ModuleDict      | --               | --             | 40       |
| │    └─(emlps)ModuleList       | --               | --             | 6,560    |
| │    │    └─(0)ModuleList      | --               | --             | 3,280    |
| │    │    └─(1)ModuleList      | --               | --             | 3,280    |
| ├─(mlp)Sequential              | [698032, 60]     | [698032, 2]    | 4,377    |
| │    └─(0)Linear               | [698032, 60]     | [698032, 50]   | 3,050    |
| │    └─(1)ReLU                 | [698032, 50]     | [698032, 50]   | --       |
| │    └─(2)Dropout              | [698032, 50]     | [698032, 50]   | --       |
| │    └─(3)Linear               | [698032, 50]     | [698032, 25]   | 1,275    |
| │    └─(4)ReLU                 | [698032, 25]     | [698032, 25]   | --       |
| │    └─(5)Dropout              | [698032, 25]     | [698032, 25]   | --       |
| │    └─(6)Linear               | [698032, 25]     | [698032, 2]    | 52       |
+--------------------------------+------------------+----------------+----------+
2025-06-16 05:10:18,696 [INFO ] Val F1: 0.6655
2025-06-16 05:10:18,697 [INFO ] Val Precision: 0.8091
2025-06-16 05:10:18,697 [INFO ] Val Recall: 0.5652
2025-06-16 05:10:18,697 [INFO ] Val Auc: 0.6149
2025-06-16 05:10:18,698 [INFO ] Test F1: 0.1525
2025-06-16 05:10:18,698 [INFO ] Test Precision: 0.0928
2025-06-16 05:10:18,698 [INFO ] Test Recall: 0.4261
…
| │    │    └─(1)ModuleDict      | --               | --             | 24,320   |
| │    └─(batch_norms)ModuleList | --               | --             | 80       |
| │    │    └─(0)ModuleDict      | --               | --             | 40       |
| │    │    └─(1)ModuleDict      | --               | --             | 40       |
| │    └─(emlps)ModuleList       | --               | --             | 6,560    |
| │    │    └─(0)ModuleList      | --               | --             | 3,280    |
| │    │    └─(1)ModuleList      | --               | --             | 3,280    |
| ├─(mlp)Sequential              | [702525, 60]     | [702525, 2]    | 4,377    |
| │    └─(0)Linear               | [702525, 60]     | [702525, 50]   | 3,050    |
| │    └─(1)ReLU                 | [702525, 50]     | [702525, 50]   | --       |
| │    └─(2)Dropout              | [702525, 50]     | [702525, 50]   | --       |
| │    └─(3)Linear               | [702525, 50]     | [702525, 25]   | 1,275    |
| │    └─(4)ReLU                 | [702525, 25]     | [702525, 25]   | --       |
| │    └─(5)Dropout              | [702525, 25]     | [702525, 25]   | --       |
| │    └─(6)Linear               | [702525, 25]     | [702525, 2]    | 52       |
+--------------------------------+------------------+----------------+----------+
2025-06-16 05:15:48,266 [INFO ] Val F1: 0.6644
2025-06-16 05:15:48,267 [INFO ] Val Precision: 0.8108
2025-06-16 05:15:48,267 [INFO ] Val Recall: 0.5627
2025-06-16 05:15:48,267 [INFO ] Val Auc: 0.6128
2025-06-16 05:15:48,268 [INFO ] Test F1: 0.1577
2025-06-16 05:15:48,268 [INFO ] Test Precision: 0.0960
2025-06-16 05:15:48,268 [INFO ] Test Recall: 0.4423
…
| │    │    └─(1)ModuleDict      | --               | --             | 24,320   |
| │    └─(batch_norms)ModuleList | --               | --             | 80       |
| │    │    └─(0)ModuleDict      | --               | --             | 40       |
| │    │    └─(1)ModuleDict      | --               | --             | 40       |
| │    └─(emlps)ModuleList       | --               | --             | 6,560    |
| │    │    └─(0)ModuleList      | --               | --             | 3,280    |
| │    │    └─(1)ModuleList      | --               | --             | 3,280    |
| ├─(mlp)Sequential              | [698880, 60]     | [698880, 2]    | 4,377    |
| │    └─(0)Linear               | [698880, 60]     | [698880, 50]   | 3,050    |
| │    └─(1)ReLU                 | [698880, 50]     | [698880, 50]   | --       |
| │    └─(2)Dropout              | [698880, 50]     | [698880, 50]   | --       |
| │    └─(3)Linear               | [698880, 50]     | [698880, 25]   | 1,275    |
| │    └─(4)ReLU                 | [698880, 25]     | [698880, 25]   | --       |
| │    └─(5)Dropout              | [698880, 25]     | [698880, 25]   | --       |
| │    └─(6)Linear               | [698880, 25]     | [698880, 2]    | 52       |
+--------------------------------+------------------+----------------+----------+
2025-06-16 05:21:21,666 [INFO ] Val F1: 0.6670
2025-06-16 05:21:21,667 [INFO ] Val Precision: 0.8108
2025-06-16 05:21:21,668 [INFO ] Val Recall: 0.5666
2025-06-16 05:21:21,668 [INFO ] Val Auc: 0.6141
2025-06-16 05:21:21,668 [INFO ] Test F1: 0.1313
2025-06-16 05:21:21,669 [INFO ] Test Precision: 0.0779
2025-06-16 05:21:21,669 [INFO ] Test Recall: 0.4174
…
| │    │    └─(1)ModuleDict      | --               | --             | 24,320   |
| │    └─(batch_norms)ModuleList | --               | --             | 80       |
| │    │    └─(0)ModuleDict      | --               | --             | 40       |
| │    │    └─(1)ModuleDict      | --               | --             | 40       |
| │    └─(emlps)ModuleList       | --               | --             | 6,560    |
| │    │    └─(0)ModuleList      | --               | --             | 3,280    |
| │    │    └─(1)ModuleList      | --               | --             | 3,280    |
| ├─(mlp)Sequential              | [699669, 60]     | [699669, 2]    | 4,377    |
| │    └─(0)Linear               | [699669, 60]     | [699669, 50]   | 3,050    |
| │    └─(1)ReLU                 | [699669, 50]     | [699669, 50]   | --       |
| │    └─(2)Dropout              | [699669, 50]     | [699669, 50]   | --       |
| │    └─(3)Linear               | [699669, 50]     | [699669, 25]   | 1,275    |
| │    └─(4)ReLU                 | [699669, 25]     | [699669, 25]   | --       |
| │    └─(5)Dropout              | [699669, 25]     | [699669, 25]   | --       |
| │    └─(6)Linear               | [699669, 25]     | [699669, 2]    | 52       |
+--------------------------------+------------------+----------------+----------+
2025-06-16 05:26:54,607 [INFO ] Val F1: 0.6659
2025-06-16 05:26:54,608 [INFO ] Val Precision: 0.8094
2025-06-16 05:26:54,608 [INFO ] Val Recall: 0.5656
2025-06-16 05:26:54,608 [INFO ] Val Auc: 0.6158
2025-06-16 05:26:54,609 [INFO ] Test F1: 0.1336
2025-06-16 05:26:54,609 [INFO ] Test Precision: 0.0792
2025-06-16 05:26:54,609 [INFO ] Test Recall: 0.4261
…
| │    │    └─(1)ModuleDict      | --               | --             | 24,320   |
| │    └─(batch_norms)ModuleList | --               | --             | 80       |
| │    │    └─(0)ModuleDict      | --               | --             | 40       |
| │    │    └─(1)ModuleDict      | --               | --             | 40       |
| │    └─(emlps)ModuleList       | --               | --             | 6,560    |
| │    │    └─(0)ModuleList      | --               | --             | 3,280    |
| │    │    └─(1)ModuleList      | --               | --             | 3,280    |
| ├─(mlp)Sequential              | [697487, 60]     | [697487, 2]    | 4,377    |
| │    └─(0)Linear               | [697487, 60]     | [697487, 50]   | 3,050    |
| │    └─(1)ReLU                 | [697487, 50]     | [697487, 50]   | --       |
| │    └─(2)Dropout              | [697487, 50]     | [697487, 50]   | --       |
| │    └─(3)Linear               | [697487, 50]     | [697487, 25]   | 1,275    |
| │    └─(4)ReLU                 | [697487, 25]     | [697487, 25]   | --       |
| │    └─(5)Dropout              | [697487, 25]     | [697487, 25]   | --       |
| │    └─(6)Linear               | [697487, 25]     | [697487, 2]    | 52       |
+--------------------------------+------------------+----------------+----------+
2025-06-16 05:32:33,799 [INFO ] Val F1: 0.6633
2025-06-16 05:32:33,800 [INFO ] Val Precision: 0.8055
2025-06-16 05:32:33,800 [INFO ] Val Recall: 0.5637
2025-06-16 05:32:33,801 [INFO ] Val Auc: 0.6133
2025-06-16 05:32:33,801 [INFO ] Test F1: 0.1304
2025-06-16 05:32:33,801 [INFO ] Test Precision: 0.0774
2025-06-16 05:32:33,801 [INFO ] Test Recall: 0.4128
…
| │    │    └─(1)ModuleDict      | --               | --             | 24,320   |
| │    └─(batch_norms)ModuleList | --               | --             | 80       |
| │    │    └─(0)ModuleDict      | --               | --             | 40       |
| │    │    └─(1)ModuleDict      | --               | --             | 40       |
| │    └─(emlps)ModuleList       | --               | --             | 6,560    |
| │    │    └─(0)ModuleList      | --               | --             | 3,280    |
| │    │    └─(1)ModuleList      | --               | --             | 3,280    |
| ├─(mlp)Sequential              | [700152, 60]     | [700152, 2]    | 4,377    |
| │    └─(0)Linear               | [700152, 60]     | [700152, 50]   | 3,050    |
| │    └─(1)ReLU                 | [700152, 50]     | [700152, 50]   | --       |
| │    └─(2)Dropout              | [700152, 50]     | [700152, 50]   | --       |
| │    └─(3)Linear               | [700152, 50]     | [700152, 25]   | 1,275    |
| │    └─(4)ReLU                 | [700152, 25]     | [700152, 25]   | --       |
| │    └─(5)Dropout              | [700152, 25]     | [700152, 25]   | --       |
| │    └─(6)Linear               | [700152, 25]     | [700152, 2]    | 52       |
+--------------------------------+------------------+----------------+----------+
2025-06-16 05:38:29,404 [INFO ] Val F1: 0.6655
2025-06-16 05:38:29,405 [INFO ] Val Precision: 0.8102
2025-06-16 05:38:29,405 [INFO ] Val Recall: 0.5647
2025-06-16 05:38:29,405 [INFO ] Val Auc: 0.6151
2025-06-16 05:38:29,406 [INFO ] Test F1: 0.1330
2025-06-16 05:38:29,406 [INFO ] Test Precision: 0.0789
2025-06-16 05:38:29,406 [INFO ] Test Recall: 0.4220
…
| │    │    └─(1)ModuleDict      | --               | --             | 24,320   |
| │    └─(batch_norms)ModuleList | --               | --             | 80       |
| │    │    └─(0)ModuleDict      | --               | --             | 40       |
| │    │    └─(1)ModuleDict      | --               | --             | 40       |
| │    └─(emlps)ModuleList       | --               | --             | 6,560    |
| │    │    └─(0)ModuleList      | --               | --             | 3,280    |
| │    │    └─(1)ModuleList      | --               | --             | 3,280    |
| ├─(mlp)Sequential              | [694886, 60]     | [694886, 2]    | 4,377    |
| │    └─(0)Linear               | [694886, 60]     | [694886, 50]   | 3,050    |
| │    └─(1)ReLU                 | [694886, 50]     | [694886, 50]   | --       |
| │    └─(2)Dropout              | [694886, 50]     | [694886, 50]   | --       |
| │    └─(3)Linear               | [694886, 50]     | [694886, 25]   | 1,275    |
| │    └─(4)ReLU                 | [694886, 25]     | [694886, 25]   | --       |
| │    └─(5)Dropout              | [694886, 25]     | [694886, 25]   | --       |
| │    └─(6)Linear               | [694886, 25]     | [694886, 2]    | 52       |
+--------------------------------+------------------+----------------+----------+
2025-06-16 05:43:53,441 [INFO ] Val F1: 0.6655
2025-06-16 05:43:53,442 [INFO ] Val Precision: 0.8083
2025-06-16 05:43:53,442 [INFO ] Val Recall: 0.5656
2025-06-16 05:43:53,442 [INFO ] Val Auc: 0.6144
2025-06-16 05:43:53,443 [INFO ] Test F1: 0.1303
2025-06-16 05:43:53,443 [INFO ] Test Precision: 0.0773
2025-06-16 05:43:53,443 [INFO ] Test Recall: 0.4137
…
| │    │    └─(1)ModuleDict      | --               | --             | 24,320   |
| │    └─(batch_norms)ModuleList | --               | --             | 80       |
| │    │    └─(0)ModuleDict      | --               | --             | 40       |
| │    │    └─(1)ModuleDict      | --               | --             | 40       |
| │    └─(emlps)ModuleList       | --               | --             | 6,560    |
| │    │    └─(0)ModuleList      | --               | --             | 3,280    |
| │    │    └─(1)ModuleList      | --               | --             | 3,280    |
| ├─(mlp)Sequential              | [699224, 60]     | [699224, 2]    | 4,377    |
| │    └─(0)Linear               | [699224, 60]     | [699224, 50]   | 3,050    |
| │    └─(1)ReLU                 | [699224, 50]     | [699224, 50]   | --       |
| │    └─(2)Dropout              | [699224, 50]     | [699224, 50]   | --       |
| │    └─(3)Linear               | [699224, 50]     | [699224, 25]   | 1,275    |
| │    └─(4)ReLU                 | [699224, 25]     | [699224, 25]   | --       |
| │    └─(5)Dropout              | [699224, 25]     | [699224, 25]   | --       |
| │    └─(6)Linear               | [699224, 25]     | [699224, 2]    | 52       |
+--------------------------------+------------------+----------------+----------+
2025-06-16 05:49:18,760 [INFO ] Val F1: 0.6670
2025-06-16 05:49:18,761 [INFO ] Val Precision: 0.8108
2025-06-16 05:49:18,761 [INFO ] Val Recall: 0.5666
2025-06-16 05:49:18,762 [INFO ] Val Auc: 0.6144
2025-06-16 05:49:18,762 [INFO ] Test F1: 0.1295
2025-06-16 05:49:18,762 [INFO ] Test Precision: 0.0769
2025-06-16 05:49:18,763 [INFO ] Test Recall: 0.4105
…
| │    │    └─(1)ModuleDict      | --               | --             | 24,320   |
| │    └─(batch_norms)ModuleList | --               | --             | 80       |
| │    │    └─(0)ModuleDict      | --               | --             | 40       |
| │    │    └─(1)ModuleDict      | --               | --             | 40       |
| │    └─(emlps)ModuleList       | --               | --             | 6,560    |
| │    │    └─(0)ModuleList      | --               | --             | 3,280    |
| │    │    └─(1)ModuleList      | --               | --             | 3,280    |
| ├─(mlp)Sequential              | [706252, 60]     | [706252, 2]    | 4,377    |
| │    └─(0)Linear               | [706252, 60]     | [706252, 50]   | 3,050    |
| │    └─(1)ReLU                 | [706252, 50]     | [706252, 50]   | --       |
| │    └─(2)Dropout              | [706252, 50]     | [706252, 50]   | --       |
| │    └─(3)Linear               | [706252, 50]     | [706252, 25]   | 1,275    |
| │    └─(4)ReLU                 | [706252, 25]     | [706252, 25]   | --       |
| │    └─(5)Dropout              | [706252, 25]     | [706252, 25]   | --       |
| │    └─(6)Linear               | [706252, 25]     | [706252, 2]    | 52       |
+--------------------------------+------------------+----------------+----------+
2025-06-16 05:54:56,831 [INFO ] Val F1: 0.6670
2025-06-16 05:54:56,831 [INFO ] Val Precision: 0.8097
2025-06-16 05:54:56,832 [INFO ] Val Recall: 0.5671
2025-06-16 05:54:56,832 [INFO ] Val Auc: 0.6158
2025-06-16 05:54:56,832 [INFO ] Test F1: 0.1013
2025-06-16 05:54:56,833 [INFO ] Test Precision: 0.0585
2025-06-16 05:54:56,833 [INFO ] Test Recall: 0.3798
…
| │    │    └─(1)ModuleDict      | --               | --             | 24,320   |
| │    └─(batch_norms)ModuleList | --               | --             | 80       |
| │    │    └─(0)ModuleDict      | --               | --             | 40       |
| │    │    └─(1)ModuleDict      | --               | --             | 40       |
| │    └─(emlps)ModuleList       | --               | --             | 6,560    |
| │    │    └─(0)ModuleList      | --               | --             | 3,280    |
| │    │    └─(1)ModuleList      | --               | --             | 3,280    |
| ├─(mlp)Sequential              | [698323, 60]     | [698323, 2]    | 4,377    |
| │    └─(0)Linear               | [698323, 60]     | [698323, 50]   | 3,050    |
| │    └─(1)ReLU                 | [698323, 50]     | [698323, 50]   | --       |
| │    └─(2)Dropout              | [698323, 50]     | [698323, 50]   | --       |
| │    └─(3)Linear               | [698323, 50]     | [698323, 25]   | 1,275    |
| │    └─(4)ReLU                 | [698323, 25]     | [698323, 25]   | --       |
| │    └─(5)Dropout              | [698323, 25]     | [698323, 25]   | --       |
| │    └─(6)Linear               | [698323, 25]     | [698323, 2]    | 52       |
+--------------------------------+------------------+----------------+----------+
2025-06-16 06:00:51,299 [INFO ] Val F1: 0.6648
2025-06-16 06:00:51,300 [INFO ] Val Precision: 0.8100
2025-06-16 06:00:51,301 [INFO ] Val Recall: 0.5637
2025-06-16 06:00:51,301 [INFO ] Val Auc: 0.6136
2025-06-16 06:00:51,301 [INFO ] Test F1: 0.1035
2025-06-16 06:00:51,301 [INFO ] Test Precision: 0.0597
2025-06-16 06:00:51,302 [INFO ] Test Recall: 0.3885
…
| │    │    └─(1)ModuleDict      | --               | --             | 24,320   |
| │    └─(batch_norms)ModuleList | --               | --             | 80       |
| │    │    └─(0)ModuleDict      | --               | --             | 40       |
| │    │    └─(1)ModuleDict      | --               | --             | 40       |
| │    └─(emlps)ModuleList       | --               | --             | 6,560    |
| │    │    └─(0)ModuleList      | --               | --             | 3,280    |
| │    │    └─(1)ModuleList      | --               | --             | 3,280    |
| ├─(mlp)Sequential              | [703584, 60]     | [703584, 2]    | 4,377    |
| │    └─(0)Linear               | [703584, 60]     | [703584, 50]   | 3,050    |
| │    └─(1)ReLU                 | [703584, 50]     | [703584, 50]   | --       |
| │    └─(2)Dropout              | [703584, 50]     | [703584, 50]   | --       |
| │    └─(3)Linear               | [703584, 50]     | [703584, 25]   | 1,275    |
| │    └─(4)ReLU                 | [703584, 25]     | [703584, 25]   | --       |
| │    └─(5)Dropout              | [703584, 25]     | [703584, 25]   | --       |
| │    └─(6)Linear               | [703584, 25]     | [703584, 2]    | 52       |
+--------------------------------+------------------+----------------+----------+
2025-06-16 06:06:12,431 [INFO ] Val F1: 0.6655
2025-06-16 06:06:12,432 [INFO ] Val Precision: 0.8102
2025-06-16 06:06:12,432 [INFO ] Val Recall: 0.5647
2025-06-16 06:06:12,432 [INFO ] Val Auc: 0.6145
2025-06-16 06:06:12,433 [INFO ] Test F1: 0.1067
2025-06-16 06:06:12,433 [INFO ] Test Precision: 0.0615
2025-06-16 06:06:12,433 [INFO ] Test Recall: 0.4010
…
| │    │    └─(1)ModuleDict      | --               | --             | 24,320   |
| │    └─(batch_norms)ModuleList | --               | --             | 80       |
| │    │    └─(0)ModuleDict      | --               | --             | 40       |
| │    │    └─(1)ModuleDict      | --               | --             | 40       |
| │    └─(emlps)ModuleList       | --               | --             | 6,560    |
| │    │    └─(0)ModuleList      | --               | --             | 3,280    |
| │    │    └─(1)ModuleList      | --               | --             | 3,280    |
| ├─(mlp)Sequential              | [713571, 60]     | [713571, 2]    | 4,377    |
| │    └─(0)Linear               | [713571, 60]     | [713571, 50]   | 3,050    |
| │    └─(1)ReLU                 | [713571, 50]     | [713571, 50]   | --       |
| │    └─(2)Dropout              | [713571, 50]     | [713571, 50]   | --       |
| │    └─(3)Linear               | [713571, 50]     | [713571, 25]   | 1,275    |
| │    └─(4)ReLU                 | [713571, 25]     | [713571, 25]   | --       |
| │    └─(5)Dropout              | [713571, 25]     | [713571, 25]   | --       |
| │    └─(6)Linear               | [713571, 25]     | [713571, 2]    | 52       |
+--------------------------------+------------------+----------------+----------+
2025-06-16 06:11:33,448 [INFO ] Val F1: 0.6659
2025-06-16 06:11:33,448 [INFO ] Val Precision: 0.8083
2025-06-16 06:11:33,448 [INFO ] Val Recall: 0.5662
2025-06-16 06:11:33,449 [INFO ] Val Auc: 0.6158
2025-06-16 06:11:33,449 [INFO ] Test F1: 0.1057
2025-06-16 06:11:33,449 [INFO ] Test Precision: 0.0610
2025-06-16 06:11:33,449 [INFO ] Test Recall: 0.3969
…
| │    │    └─(1)ModuleDict      | --               | --             | 24,320   |
| │    └─(batch_norms)ModuleList | --               | --             | 80       |
| │    │    └─(0)ModuleDict      | --               | --             | 40       |
| │    │    └─(1)ModuleDict      | --               | --             | 40       |
| │    └─(emlps)ModuleList       | --               | --             | 6,560    |
| │    │    └─(0)ModuleList      | --               | --             | 3,280    |
| │    │    └─(1)ModuleList      | --               | --             | 3,280    |
| ├─(mlp)Sequential              | [700127, 60]     | [700127, 2]    | 4,377    |
| │    └─(0)Linear               | [700127, 60]     | [700127, 50]   | 3,050    |
| │    └─(1)ReLU                 | [700127, 50]     | [700127, 50]   | --       |
| │    └─(2)Dropout              | [700127, 50]     | [700127, 50]   | --       |
| │    └─(3)Linear               | [700127, 50]     | [700127, 25]   | 1,275    |
| │    └─(4)ReLU                 | [700127, 25]     | [700127, 25]   | --       |
| │    └─(5)Dropout              | [700127, 25]     | [700127, 25]   | --       |
| │    └─(6)Linear               | [700127, 25]     | [700127, 2]    | 52       |
+--------------------------------+------------------+----------------+----------+
2025-06-16 06:16:58,944 [INFO ] Val F1: 0.6655
2025-06-16 06:16:58,945 [INFO ] Val Precision: 0.8111
2025-06-16 06:16:58,945 [INFO ] Val Recall: 0.5643
2025-06-16 06:16:58,945 [INFO ] Val Auc: 0.6133
2025-06-16 06:16:58,946 [INFO ] Test F1: 0.1096
2025-06-16 06:16:58,946 [INFO ] Test Precision: 0.0631
…
| │    │    └─(1)ModuleDict      | --               | --             | 24,320   |
| │    └─(batch_norms)ModuleList | --               | --             | 80       |
| │    │    └─(0)ModuleDict      | --               | --             | 40       |
| │    │    └─(1)ModuleDict      | --               | --             | 40       |
| │    └─(emlps)ModuleList       | --               | --             | 6,560    |
| │    │    └─(0)ModuleList      | --               | --             | 3,280    |
| │    │    └─(1)ModuleList      | --               | --             | 3,280    |
| ├─(mlp)Sequential              | [694953, 60]     | [694953, 2]    | 4,377    |
| │    └─(0)Linear               | [694953, 60]     | [694953, 50]   | 3,050    |
| │    └─(1)ReLU                 | [694953, 50]     | [694953, 50]   | --       |
| │    └─(2)Dropout              | [694953, 50]     | [694953, 50]   | --       |
| │    └─(3)Linear               | [694953, 50]     | [694953, 25]   | 1,275    |
| │    └─(4)ReLU                 | [694953, 25]     | [694953, 25]   | --       |
| │    └─(5)Dropout              | [694953, 25]     | [694953, 25]   | --       |
| │    └─(6)Linear               | [694953, 25]     | [694953, 2]    | 52       |
+--------------------------------+------------------+----------------+----------+
2025-06-17 16:50:35,119 [INFO ] Val F1: 0.5627
2025-06-17 16:50:35,120 [INFO ] Val Precision: 0.5328
2025-06-17 16:50:35,120 [INFO ] Val Recall: 0.5961
2025-06-17 16:50:35,121 [INFO ] Val Auc: 0.5928
2025-06-17 16:50:35,121 [INFO ] Test F1: 0.4124
2025-06-17 16:50:35,121 [INFO ] Test Precision: 0.2873
2025-06-17 16:50:35,122 [INFO ] Test Recall: 0.7306
…
| │    │    └─(1)ModuleDict      | --               | --             | 24,320   |
| │    └─(batch_norms)ModuleList | --               | --             | 80       |
| │    │    └─(0)ModuleDict      | --               | --             | 40       |
| │    │    └─(1)ModuleDict      | --               | --             | 40       |
| │    └─(emlps)ModuleList       | --               | --             | 6,560    |
| │    │    └─(0)ModuleList      | --               | --             | 3,280    |
| │    │    └─(1)ModuleList      | --               | --             | 3,280    |
| ├─(mlp)Sequential              | [708245, 60]     | [708245, 2]    | 4,377    |
| │    └─(0)Linear               | [708245, 60]     | [708245, 50]   | 3,050    |
| │    └─(1)ReLU                 | [708245, 50]     | [708245, 50]   | --       |
| │    └─(2)Dropout              | [708245, 50]     | [708245, 50]   | --       |
| │    └─(3)Linear               | [708245, 50]     | [708245, 25]   | 1,275    |
| │    └─(4)ReLU                 | [708245, 25]     | [708245, 25]   | --       |
| │    └─(5)Dropout              | [708245, 25]     | [708245, 25]   | --       |
| │    └─(6)Linear               | [708245, 25]     | [708245, 2]    | 52       |
+--------------------------------+------------------+----------------+----------+
2025-06-17 17:08:58,777 [INFO ] Val F1: 0.4272
2025-06-17 17:08:58,777 [INFO ] Val Precision: 0.3234
2025-06-17 17:08:58,777 [INFO ] Val Recall: 0.6290
2025-06-17 17:08:58,778 [INFO ] Val Auc: 0.5472
2025-06-17 17:08:58,778 [INFO ] Test F1: 0.3394
2025-06-17 17:08:58,778 [INFO ] Test Precision: 0.2170
2025-06-17 17:08:58,778 [INFO ] Test Recall: 0.7778
…
| │    │    └─(1)ModuleDict      | --               | --             | 24,320   |
| │    └─(batch_norms)ModuleList | --               | --             | 80       |
| │    │    └─(0)ModuleDict      | --               | --             | 40       |
| │    │    └─(1)ModuleDict      | --               | --             | 40       |
| │    └─(emlps)ModuleList       | --               | --             | 6,560    |
| │    │    └─(0)ModuleList      | --               | --             | 3,280    |
| │    │    └─(1)ModuleList      | --               | --             | 3,280    |
| ├─(mlp)Sequential              | [701501, 60]     | [701501, 2]    | 4,377    |
| │    └─(0)Linear               | [701501, 60]     | [701501, 50]   | 3,050    |
| │    └─(1)ReLU                 | [701501, 50]     | [701501, 50]   | --       |
| │    └─(2)Dropout              | [701501, 50]     | [701501, 50]   | --       |
| │    └─(3)Linear               | [701501, 50]     | [701501, 25]   | 1,275    |
| │    └─(4)ReLU                 | [701501, 25]     | [701501, 25]   | --       |
| │    └─(5)Dropout              | [701501, 25]     | [701501, 25]   | --       |
| │    └─(6)Linear               | [701501, 25]     | [701501, 2]    | 52       |
+--------------------------------+------------------+----------------+----------+
2025-06-17 17:21:09,560 [INFO ] Val F1: 0.6174
2025-06-17 17:21:09,561 [INFO ] Val Precision: 0.6590
2025-06-17 17:21:09,561 [INFO ] Val Recall: 0.5807
2025-06-17 17:21:09,561 [INFO ] Val Auc: 0.6051
2025-06-17 17:21:09,561 [INFO ] Test F1: 0.6023
2025-06-17 17:21:09,562 [INFO ] Test Precision: 0.5513
2025-06-17 17:21:09,562 [INFO ] Test Recall: 0.6636
…
| │    │    └─(1)ModuleDict      | --               | --             | 24,320   |
| │    └─(batch_norms)ModuleList | --               | --             | 80       |
| │    │    └─(0)ModuleDict      | --               | --             | 40       |
| │    │    └─(1)ModuleDict      | --               | --             | 40       |
| │    └─(emlps)ModuleList       | --               | --             | 6,560    |
| │    │    └─(0)ModuleList      | --               | --             | 3,280    |
| │    │    └─(1)ModuleList      | --               | --             | 3,280    |
| ├─(mlp)Sequential              | [694428, 60]     | [694428, 2]    | 4,377    |
| │    └─(0)Linear               | [694428, 60]     | [694428, 50]   | 3,050    |
| │    └─(1)ReLU                 | [694428, 50]     | [694428, 50]   | --       |
| │    └─(2)Dropout              | [694428, 50]     | [694428, 50]   | --       |
| │    └─(3)Linear               | [694428, 50]     | [694428, 25]   | 1,275    |
| │    └─(4)ReLU                 | [694428, 25]     | [694428, 25]   | --       |
| │    └─(5)Dropout              | [694428, 25]     | [694428, 25]   | --       |
| │    └─(6)Linear               | [694428, 25]     | [694428, 2]    | 52       |
+--------------------------------+------------------+----------------+----------+
2025-06-17 17:27:19,486 [INFO ] Val F1: 0.5482
2025-06-17 17:27:19,487 [INFO ] Val Precision: 0.5078
2025-06-17 17:27:19,487 [INFO ] Val Recall: 0.5956
2025-06-17 17:27:19,487 [INFO ] Val Auc: 0.5956
2025-06-17 17:27:19,488 [INFO ] Test F1: 0.4786
2025-06-17 17:27:19,488 [INFO ] Test Precision: 0.3483
2025-06-17 17:27:19,488 [INFO ] Test Recall: 0.7647
…
| │    │    └─(1)ModuleDict      | --               | --             | 24,320   |
| │    └─(batch_norms)ModuleList | --               | --             | 80       |
| │    │    └─(0)ModuleDict      | --               | --             | 40       |
| │    │    └─(1)ModuleDict      | --               | --             | 40       |
| │    └─(emlps)ModuleList       | --               | --             | 6,560    |
| │    │    └─(0)ModuleList      | --               | --             | 3,280    |
| │    │    └─(1)ModuleList      | --               | --             | 3,280    |
| ├─(mlp)Sequential              | [691688, 60]     | [691688, 2]    | 4,377    |
| │    └─(0)Linear               | [691688, 60]     | [691688, 50]   | 3,050    |
| │    └─(1)ReLU                 | [691688, 50]     | [691688, 50]   | --       |
| │    └─(2)Dropout              | [691688, 50]     | [691688, 50]   | --       |
| │    └─(3)Linear               | [691688, 50]     | [691688, 25]   | 1,275    |
| │    └─(4)ReLU                 | [691688, 25]     | [691688, 25]   | --       |
| │    └─(5)Dropout              | [691688, 25]     | [691688, 25]   | --       |
| │    └─(6)Linear               | [691688, 25]     | [691688, 2]    | 52       |
+--------------------------------+------------------+----------------+----------+
2025-06-17 17:36:30,716 [INFO ] Train F1: 0.5469
2025-06-17 17:36:30,717 [INFO ] Train Precision: 0.6690
2025-06-17 17:36:30,717 [INFO ] Train Recall: 0.4625
2025-06-17 17:36:30,717 [INFO ] Train Auc: 0.4813
2025-06-17 17:39:11,605 [INFO ] Val F1: 0.5234
2025-06-17 17:39:11,606 [INFO ] Val Precision: 0.4551
2025-06-17 17:39:11,606 [INFO ] Val Recall: 0.6158
…
| │    │    └─(1)ModuleDict      | --               | --             | 24,320   |
| │    └─(batch_norms)ModuleList | --               | --             | 80       |
| │    │    └─(0)ModuleDict      | --               | --             | 40       |
| │    │    └─(1)ModuleDict      | --               | --             | 40       |
| │    └─(emlps)ModuleList       | --               | --             | 6,560    |
| │    │    └─(0)ModuleList      | --               | --             | 3,280    |
| │    │    └─(1)ModuleList      | --               | --             | 3,280    |
| ├─(mlp)Sequential              | [705383, 60]     | [705383, 2]    | 4,377    |
| │    └─(0)Linear               | [705383, 60]     | [705383, 50]   | 3,050    |
| │    └─(1)ReLU                 | [705383, 50]     | [705383, 50]   | --       |
| │    └─(2)Dropout              | [705383, 50]     | [705383, 50]   | --       |
| │    └─(3)Linear               | [705383, 50]     | [705383, 25]   | 1,275    |
| │    └─(4)ReLU                 | [705383, 25]     | [705383, 25]   | --       |
| │    └─(5)Dropout              | [705383, 25]     | [705383, 25]   | --       |
| │    └─(6)Linear               | [705383, 25]     | [705383, 2]    | 52       |
+--------------------------------+------------------+----------------+----------+
2025-06-17 17:45:14,397 [INFO ] Val F1: 0.4880
2025-06-17 17:45:14,398 [INFO ] Val Precision: 0.4264
2025-06-17 17:45:14,398 [INFO ] Val Recall: 0.5705
2025-06-17 17:45:14,398 [INFO ] Val Auc: 0.5250
2025-06-17 17:45:14,399 [INFO ] Test F1: 0.4699
2025-06-17 17:45:14,399 [INFO ] Test Precision: 0.3467
2025-06-17 17:45:14,400 [INFO ] Test Recall: 0.7287
…
| │    │    └─(1)ModuleDict      | --               | --             | 24,320   |
| │    └─(batch_norms)ModuleList | --               | --             | 80       |
| │    │    └─(0)ModuleDict      | --               | --             | 40       |
| │    │    └─(1)ModuleDict      | --               | --             | 40       |
| │    └─(emlps)ModuleList       | --               | --             | 6,560    |
| │    │    └─(0)ModuleList      | --               | --             | 3,280    |
| │    │    └─(1)ModuleList      | --               | --             | 3,280    |
| ├─(mlp)Sequential              | [708472, 60]     | [708472, 2]    | 4,377    |
| │    └─(0)Linear               | [708472, 60]     | [708472, 50]   | 3,050    |
| │    └─(1)ReLU                 | [708472, 50]     | [708472, 50]   | --       |
| │    └─(2)Dropout              | [708472, 50]     | [708472, 50]   | --       |
| │    └─(3)Linear               | [708472, 50]     | [708472, 25]   | 1,275    |
| │    └─(4)ReLU                 | [708472, 25]     | [708472, 25]   | --       |
| │    └─(5)Dropout              | [708472, 25]     | [708472, 25]   | --       |
| │    └─(6)Linear               | [708472, 25]     | [708472, 2]    | 52       |
+--------------------------------+------------------+----------------+----------+
2025-06-17 17:58:30,789 [INFO ] Val F1: 0.6772
2025-06-17 17:58:30,790 [INFO ] Val Precision: 0.8544
2025-06-17 17:58:30,791 [INFO ] Val Recall: 0.5608
2025-06-17 17:58:30,791 [INFO ] Val Auc: 0.6196
2025-06-17 17:58:30,791 [INFO ] Test F1: 0.3094
2025-06-17 17:58:30,791 [INFO ] Test Precision: 0.2351
2025-06-17 17:58:30,791 [INFO ] Test Recall: 0.4524
…
| │    │    └─(1)ModuleDict      | --               | --             | 24,320   |
| │    └─(batch_norms)ModuleList | --               | --             | 80       |
| │    │    └─(0)ModuleDict      | --               | --             | 40       |
| │    │    └─(1)ModuleDict      | --               | --             | 40       |
| │    └─(emlps)ModuleList       | --               | --             | 6,560    |
| │    │    └─(0)ModuleList      | --               | --             | 3,280    |
| │    │    └─(1)ModuleList      | --               | --             | 3,280    |
| ├─(mlp)Sequential              | [703701, 60]     | [703701, 2]    | 4,377    |
| │    └─(0)Linear               | [703701, 60]     | [703701, 50]   | 3,050    |
| │    └─(1)ReLU                 | [703701, 50]     | [703701, 50]   | --       |
| │    └─(2)Dropout              | [703701, 50]     | [703701, 50]   | --       |
| │    └─(3)Linear               | [703701, 50]     | [703701, 25]   | 1,275    |
| │    └─(4)ReLU                 | [703701, 25]     | [703701, 25]   | --       |
| │    └─(5)Dropout              | [703701, 25]     | [703701, 25]   | --       |
| │    └─(6)Linear               | [703701, 25]     | [703701, 2]    | 52       |
+--------------------------------+------------------+----------------+----------+
2025-06-17 18:05:13,877 [INFO ] Val F1: 0.6772
2025-06-17 18:05:13,878 [INFO ] Val Precision: 0.8567
2025-06-17 18:05:13,878 [INFO ] Val Recall: 0.5598
2025-06-17 18:05:13,879 [INFO ] Val Auc: 0.6201
2025-06-17 18:05:13,879 [INFO ] Test F1: 0.3168
2025-06-17 18:05:13,879 [INFO ] Test Precision: 0.2402
2025-06-17 18:05:13,879 [INFO ] Test Recall: 0.4653
…
| │    │    └─(1)ModuleDict      | --               | --             | 24,320   |
| │    └─(batch_norms)ModuleList | --               | --             | 80       |
| │    │    └─(0)ModuleDict      | --               | --             | 40       |
| │    │    └─(1)ModuleDict      | --               | --             | 40       |
| │    └─(emlps)ModuleList       | --               | --             | 6,560    |
| │    │    └─(0)ModuleList      | --               | --             | 3,280    |
| │    │    └─(1)ModuleList      | --               | --             | 3,280    |
| ├─(mlp)Sequential              | [698150, 60]     | [698150, 2]    | 4,377    |
| │    └─(0)Linear               | [698150, 60]     | [698150, 50]   | 3,050    |
| │    └─(1)ReLU                 | [698150, 50]     | [698150, 50]   | --       |
| │    └─(2)Dropout              | [698150, 50]     | [698150, 50]   | --       |
| │    └─(3)Linear               | [698150, 50]     | [698150, 25]   | 1,275    |
| │    └─(4)ReLU                 | [698150, 25]     | [698150, 25]   | --       |
| │    └─(5)Dropout              | [698150, 25]     | [698150, 25]   | --       |
| │    └─(6)Linear               | [698150, 25]     | [698150, 2]    | 52       |
+--------------------------------+------------------+----------------+----------+
2025-06-17 18:12:35,251 [INFO ] Val F1: 0.6756
2025-06-17 18:12:35,251 [INFO ] Val Precision: 0.8540
2025-06-17 18:12:35,251 [INFO ] Val Recall: 0.5589
2025-06-17 18:12:35,252 [INFO ] Val Auc: 0.6196
2025-06-17 18:12:35,252 [INFO ] Test F1: 0.3037
2025-06-17 18:12:35,252 [INFO ] Test Precision: 0.2315
2025-06-17 18:12:35,252 [INFO ] Test Recall: 0.4412
…
| │    │    └─(1)ModuleDict      | --               | --             | 24,320   |
| │    └─(batch_norms)ModuleList | --               | --             | 80       |
| │    │    └─(0)ModuleDict      | --               | --             | 40       |
| │    │    └─(1)ModuleDict      | --               | --             | 40       |
| │    └─(emlps)ModuleList       | --               | --             | 6,560    |
| │    │    └─(0)ModuleList      | --               | --             | 3,280    |
| │    │    └─(1)ModuleList      | --               | --             | 3,280    |
| ├─(mlp)Sequential              | [698506, 60]     | [698506, 2]    | 4,377    |
| │    └─(0)Linear               | [698506, 60]     | [698506, 50]   | 3,050    |
| │    └─(1)ReLU                 | [698506, 50]     | [698506, 50]   | --       |
| │    └─(2)Dropout              | [698506, 50]     | [698506, 50]   | --       |
| │    └─(3)Linear               | [698506, 50]     | [698506, 25]   | 1,275    |
| │    └─(4)ReLU                 | [698506, 25]     | [698506, 25]   | --       |
| │    └─(5)Dropout              | [698506, 25]     | [698506, 25]   | --       |
| │    └─(6)Linear               | [698506, 25]     | [698506, 2]    | 52       |
+--------------------------------+------------------+----------------+----------+
2025-06-17 18:19:36,028 [INFO ] Val F1: 0.6768
2025-06-17 18:19:36,029 [INFO ] Val Precision: 0.8555
2025-06-17 18:19:36,029 [INFO ] Val Recall: 0.5598
2025-06-17 18:19:36,029 [INFO ] Val Auc: 0.6196
2025-06-17 18:19:36,029 [INFO ] Test F1: 0.3136
2025-06-17 18:19:36,030 [INFO ] Test Precision: 0.2389
2025-06-17 18:19:36,030 [INFO ] Test Recall: 0.4562
…
| │    │    └─(1)ModuleDict      | --               | --             | 24,320   |
| │    └─(batch_norms)ModuleList | --               | --             | 80       |
| │    │    └─(0)ModuleDict      | --               | --             | 40       |
| │    │    └─(1)ModuleDict      | --               | --             | 40       |
| │    └─(emlps)ModuleList       | --               | --             | 6,560    |
| │    │    └─(0)ModuleList      | --               | --             | 3,280    |
| │    │    └─(1)ModuleList      | --               | --             | 3,280    |
| ├─(mlp)Sequential              | [701826, 60]     | [701826, 2]    | 4,377    |
| │    └─(0)Linear               | [701826, 60]     | [701826, 50]   | 3,050    |
| │    └─(1)ReLU                 | [701826, 50]     | [701826, 50]   | --       |
| │    └─(2)Dropout              | [701826, 50]     | [701826, 50]   | --       |
| │    └─(3)Linear               | [701826, 50]     | [701826, 25]   | 1,275    |
| │    └─(4)ReLU                 | [701826, 25]     | [701826, 25]   | --       |
| │    └─(5)Dropout              | [701826, 25]     | [701826, 25]   | --       |
| │    └─(6)Linear               | [701826, 25]     | [701826, 2]    | 52       |
+--------------------------------+------------------+----------------+----------+
2025-06-17 18:27:02,891 [INFO ] Val F1: 0.6756
2025-06-17 18:27:02,892 [INFO ] Val Precision: 0.8563
2025-06-17 18:27:02,892 [INFO ] Val Recall: 0.5579
2025-06-17 18:27:02,892 [INFO ] Val Auc: 0.6186
2025-06-17 18:27:02,893 [INFO ] Test F1: 0.3104
2025-06-17 18:27:02,893 [INFO ] Test Precision: 0.2361
2025-06-17 18:27:02,893 [INFO ] Test Recall: 0.4529
…
| │    │    └─(1)ModuleDict      | --               | --             | 24,320   |
| │    └─(batch_norms)ModuleList | --               | --             | 80       |
| │    │    └─(0)ModuleDict      | --               | --             | 40       |
| │    │    └─(1)ModuleDict      | --               | --             | 40       |
| │    └─(emlps)ModuleList       | --               | --             | 6,560    |
| │    │    └─(0)ModuleList      | --               | --             | 3,280    |
| │    │    └─(1)ModuleList      | --               | --             | 3,280    |
| ├─(mlp)Sequential              | [700121, 60]     | [700121, 2]    | 4,377    |
| │    └─(0)Linear               | [700121, 60]     | [700121, 50]   | 3,050    |
| │    └─(1)ReLU                 | [700121, 50]     | [700121, 50]   | --       |
| │    └─(2)Dropout              | [700121, 50]     | [700121, 50]   | --       |
| │    └─(3)Linear               | [700121, 50]     | [700121, 25]   | 1,275    |
| │    └─(4)ReLU                 | [700121, 25]     | [700121, 25]   | --       |
| │    └─(5)Dropout              | [700121, 25]     | [700121, 25]   | --       |
| │    └─(6)Linear               | [700121, 25]     | [700121, 2]    | 52       |
+--------------------------------+------------------+----------------+----------+
2025-06-17 18:34:44,994 [INFO ] Val F1: 0.6760
2025-06-17 18:34:44,995 [INFO ] Val Precision: 0.8552
2025-06-17 18:34:44,995 [INFO ] Val Recall: 0.5589
2025-06-17 18:34:44,996 [INFO ] Val Auc: 0.6192
2025-06-17 18:34:44,996 [INFO ] Test F1: 0.3076
2025-06-17 18:34:44,996 [INFO ] Test Precision: 0.2345
2025-06-17 18:34:44,996 [INFO ] Test Recall: 0.4471
…
| │    │    └─(1)ModuleDict      | --               | --             | 24,320   |
| │    └─(batch_norms)ModuleList | --               | --             | 80       |
| │    │    └─(0)ModuleDict      | --               | --             | 40       |
| │    │    └─(1)ModuleDict      | --               | --             | 40       |
| │    └─(emlps)ModuleList       | --               | --             | 6,560    |
| │    │    └─(0)ModuleList      | --               | --             | 3,280    |
| │    │    └─(1)ModuleList      | --               | --             | 3,280    |
| ├─(mlp)Sequential              | [694851, 60]     | [694851, 2]    | 4,377    |
| │    └─(0)Linear               | [694851, 60]     | [694851, 50]   | 3,050    |
| │    └─(1)ReLU                 | [694851, 50]     | [694851, 50]   | --       |
| │    └─(2)Dropout              | [694851, 50]     | [694851, 50]   | --       |
| │    └─(3)Linear               | [694851, 50]     | [694851, 25]   | 1,275    |
| │    └─(4)ReLU                 | [694851, 25]     | [694851, 25]   | --       |
| │    └─(5)Dropout              | [694851, 25]     | [694851, 25]   | --       |
| │    └─(6)Linear               | [694851, 25]     | [694851, 2]    | 52       |
+--------------------------------+------------------+----------------+----------+
2025-06-17 18:42:06,975 [INFO ] Val F1: 0.6756
2025-06-17 18:42:06,975 [INFO ] Val Precision: 0.8550
2025-06-17 18:42:06,975 [INFO ] Val Recall: 0.5585
2025-06-17 18:42:06,976 [INFO ] Val Auc: 0.6201
2025-06-17 18:42:06,976 [INFO ] Test F1: 0.2483
2025-06-17 18:42:06,976 [INFO ] Test Precision: 0.1801
2025-06-17 18:42:06,976 [INFO ] Test Recall: 0.3996
…
| │    │    └─(1)ModuleDict      | --               | --             | 24,320   |
| │    └─(batch_norms)ModuleList | --               | --             | 80       |
| │    │    └─(0)ModuleDict      | --               | --             | 40       |
| │    │    └─(1)ModuleDict      | --               | --             | 40       |
| │    └─(emlps)ModuleList       | --               | --             | 6,560    |
| │    │    └─(0)ModuleList      | --               | --             | 3,280    |
| │    │    └─(1)ModuleList      | --               | --             | 3,280    |
| ├─(mlp)Sequential              | [701372, 60]     | [701372, 2]    | 4,377    |
| │    └─(0)Linear               | [701372, 60]     | [701372, 50]   | 3,050    |
| │    └─(1)ReLU                 | [701372, 50]     | [701372, 50]   | --       |
| │    └─(2)Dropout              | [701372, 50]     | [701372, 50]   | --       |
| │    └─(3)Linear               | [701372, 50]     | [701372, 25]   | 1,275    |
| │    └─(4)ReLU                 | [701372, 25]     | [701372, 25]   | --       |
| │    └─(5)Dropout              | [701372, 25]     | [701372, 25]   | --       |
| │    └─(6)Linear               | [701372, 25]     | [701372, 2]    | 52       |
+--------------------------------+------------------+----------------+----------+
2025-06-17 18:53:02,164 [INFO ] Val F1: 0.6783
2025-06-17 18:53:02,165 [INFO ] Val Precision: 0.8546
2025-06-17 18:53:02,165 [INFO ] Val Recall: 0.5623
2025-06-17 18:53:02,165 [INFO ] Val Auc: 0.6203
2025-06-17 18:53:02,166 [INFO ] Test F1: 0.2587
2025-06-17 18:53:02,166 [INFO ] Test Precision: 0.1874
2025-06-17 18:53:02,166 [INFO ] Test Recall: 0.4177
…
| │    │    └─(1)ModuleDict      | --               | --             | 24,320   |
| │    └─(batch_norms)ModuleList | --               | --             | 80       |
| │    │    └─(0)ModuleDict      | --               | --             | 40       |
| │    │    └─(1)ModuleDict      | --               | --             | 40       |
| │    └─(emlps)ModuleList       | --               | --             | 6,560    |
| │    │    └─(0)ModuleList      | --               | --             | 3,280    |
| │    │    └─(1)ModuleList      | --               | --             | 3,280    |
| ├─(mlp)Sequential              | [701247, 60]     | [701247, 2]    | 4,377    |
| │    └─(0)Linear               | [701247, 60]     | [701247, 50]   | 3,050    |
| │    └─(1)ReLU                 | [701247, 50]     | [701247, 50]   | --       |
| │    └─(2)Dropout              | [701247, 50]     | [701247, 50]   | --       |
| │    └─(3)Linear               | [701247, 50]     | [701247, 25]   | 1,275    |
| │    └─(4)ReLU                 | [701247, 25]     | [701247, 25]   | --       |
| │    └─(5)Dropout              | [701247, 25]     | [701247, 25]   | --       |
| │    └─(6)Linear               | [701247, 25]     | [701247, 2]    | 52       |
+--------------------------------+------------------+----------------+----------+
2025-06-17 19:01:54,026 [INFO ] Val F1: 0.6764
2025-06-17 19:01:54,027 [INFO ] Val Precision: 0.8542
2025-06-17 19:01:54,027 [INFO ] Val Recall: 0.5598
2025-06-17 19:01:54,027 [INFO ] Val Auc: 0.6195
2025-06-17 19:01:54,028 [INFO ] Test F1: 0.2560
2025-06-17 19:01:54,028 [INFO ] Test Precision: 0.1852
2025-06-17 19:01:54,028 [INFO ] Test Recall: 0.4146
…
| │    │    └─(1)ModuleDict      | --               | --             | 24,320   |
| │    └─(batch_norms)ModuleList | --               | --             | 80       |
| │    │    └─(0)ModuleDict      | --               | --             | 40       |
| │    │    └─(1)ModuleDict      | --               | --             | 40       |
| │    └─(emlps)ModuleList       | --               | --             | 6,560    |
| │    │    └─(0)ModuleList      | --               | --             | 3,280    |
| │    │    └─(1)ModuleList      | --               | --             | 3,280    |
| ├─(mlp)Sequential              | [703159, 60]     | [703159, 2]    | 4,377    |
| │    └─(0)Linear               | [703159, 60]     | [703159, 50]   | 3,050    |
| │    └─(1)ReLU                 | [703159, 50]     | [703159, 50]   | --       |
| │    └─(2)Dropout              | [703159, 50]     | [703159, 50]   | --       |
| │    └─(3)Linear               | [703159, 50]     | [703159, 25]   | 1,275    |
| │    └─(4)ReLU                 | [703159, 25]     | [703159, 25]   | --       |
| │    └─(5)Dropout              | [703159, 25]     | [703159, 25]   | --       |
| │    └─(6)Linear               | [703159, 25]     | [703159, 2]    | 52       |
+--------------------------------+------------------+----------------+----------+
2025-06-17 19:09:40,615 [INFO ] Val F1: 0.6764
2025-06-17 19:09:40,615 [INFO ] Val Precision: 0.8565
2025-06-17 19:09:40,615 [INFO ] Val Recall: 0.5589
2025-06-17 19:09:40,616 [INFO ] Val Auc: 0.6192
2025-06-17 19:09:40,616 [INFO ] Test F1: 0.2521
2025-06-17 19:09:40,616 [INFO ] Test Precision: 0.1825
2025-06-17 19:09:40,616 [INFO ] Test Recall: 0.4073
…
| │    │    └─(1)ModuleDict      | --               | --             | 24,320   |
| │    └─(batch_norms)ModuleList | --               | --             | 80       |
| │    │    └─(0)ModuleDict      | --               | --             | 40       |
| │    │    └─(1)ModuleDict      | --               | --             | 40       |
| │    └─(emlps)ModuleList       | --               | --             | 6,560    |
| │    │    └─(0)ModuleList      | --               | --             | 3,280    |
| │    │    └─(1)ModuleList      | --               | --             | 3,280    |
| ├─(mlp)Sequential              | [701804, 60]     | [701804, 2]    | 4,377    |
| │    └─(0)Linear               | [701804, 60]     | [701804, 50]   | 3,050    |
| │    └─(1)ReLU                 | [701804, 50]     | [701804, 50]   | --       |
| │    └─(2)Dropout              | [701804, 50]     | [701804, 50]   | --       |
| │    └─(3)Linear               | [701804, 50]     | [701804, 25]   | 1,275    |
| │    └─(4)ReLU                 | [701804, 25]     | [701804, 25]   | --       |
| │    └─(5)Dropout              | [701804, 25]     | [701804, 25]   | --       |
| │    └─(6)Linear               | [701804, 25]     | [701804, 2]    | 52       |
+--------------------------------+------------------+----------------+----------+
2025-06-17 19:17:17,353 [INFO ] Val F1: 0.6768
2025-06-17 19:17:17,354 [INFO ] Val Precision: 0.8555
2025-06-17 19:17:17,354 [INFO ] Val Recall: 0.5598
2025-06-17 19:17:17,354 [INFO ] Val Auc: 0.6196
2025-06-17 19:17:17,355 [INFO ] Test F1: 0.2620
2025-06-17 19:17:17,355 [INFO ] Test Precision: 0.1887
2025-06-17 19:17:17,355 [INFO ] Test Recall: 0.4284
…
| │    │    └─(1)ModuleDict      | --               | --             | 24,320   |
| │    └─(batch_norms)ModuleList | --               | --             | 80       |
| │    │    └─(0)ModuleDict      | --               | --             | 40       |
| │    │    └─(1)ModuleDict      | --               | --             | 40       |
| │    └─(emlps)ModuleList       | --               | --             | 6,560    |
| │    │    └─(0)ModuleList      | --               | --             | 3,280    |
| │    │    └─(1)ModuleList      | --               | --             | 3,280    |
| ├─(mlp)Sequential              | [697364, 60]     | [697364, 2]    | 4,377    |
| │    └─(0)Linear               | [697364, 60]     | [697364, 50]   | 3,050    |
| │    └─(1)ReLU                 | [697364, 50]     | [697364, 50]   | --       |
| │    └─(2)Dropout              | [697364, 50]     | [697364, 50]   | --       |
| │    └─(3)Linear               | [697364, 50]     | [697364, 25]   | 1,275    |
| │    └─(4)ReLU                 | [697364, 25]     | [697364, 25]   | --       |
| │    └─(5)Dropout              | [697364, 25]     | [697364, 25]   | --       |
| │    └─(6)Linear               | [697364, 25]     | [697364, 2]    | 52       |
+--------------------------------+------------------+----------------+----------+
2025-06-17 19:24:42,910 [INFO ] Val F1: 0.6756
2025-06-17 19:24:42,910 [INFO ] Val Precision: 0.8550
2025-06-17 19:24:42,911 [INFO ] Val Recall: 0.5585
2025-06-17 19:24:42,911 [INFO ] Val Auc: 0.6203
2025-06-17 19:24:42,911 [INFO ] Test F1: 0.2580
2025-06-17 19:24:42,911 [INFO ] Test Precision: 0.1861
2025-06-17 19:24:42,911 [INFO ] Test Recall: 0.4207
…
| │    │    └─(1)ModuleDict      | --               | --             | 24,320   |
| │    └─(batch_norms)ModuleList | --               | --             | 80       |
| │    │    └─(0)ModuleDict      | --               | --             | 40       |
| │    │    └─(1)ModuleDict      | --               | --             | 40       |
| │    └─(emlps)ModuleList       | --               | --             | 6,560    |
| │    │    └─(0)ModuleList      | --               | --             | 3,280    |
| │    │    └─(1)ModuleList      | --               | --             | 3,280    |
| ├─(mlp)Sequential              | [697413, 60]     | [697413, 2]    | 4,377    |
| │    └─(0)Linear               | [697413, 60]     | [697413, 50]   | 3,050    |
| │    └─(1)ReLU                 | [697413, 50]     | [697413, 50]   | --       |
| │    └─(2)Dropout              | [697413, 50]     | [697413, 50]   | --       |
| │    └─(3)Linear               | [697413, 50]     | [697413, 25]   | 1,275    |
| │    └─(4)ReLU                 | [697413, 25]     | [697413, 25]   | --       |
| │    └─(5)Dropout              | [697413, 25]     | [697413, 25]   | --       |
| │    └─(6)Linear               | [697413, 25]     | [697413, 2]    | 52       |
+--------------------------------+------------------+----------------+----------+
2025-06-17 19:32:21,443 [INFO ] Val F1: 0.6768
2025-06-17 19:32:21,444 [INFO ] Val Precision: 0.8542
2025-06-17 19:32:21,444 [INFO ] Val Recall: 0.5604
2025-06-17 19:32:21,444 [INFO ] Val Auc: 0.6202
2025-06-17 19:32:21,444 [INFO ] Test F1: 0.2050
2025-06-17 19:32:21,445 [INFO ] Test Precision: 0.1420
2025-06-17 19:32:21,445 [INFO ] Test Recall: 0.3683
…
| │    │    └─(1)ModuleDict      | --               | --             | 24,320   |
| │    └─(batch_norms)ModuleList | --               | --             | 80       |
| │    │    └─(0)ModuleDict      | --               | --             | 40       |
| │    │    └─(1)ModuleDict      | --               | --             | 40       |
| │    └─(emlps)ModuleList       | --               | --             | 6,560    |
| │    │    └─(0)ModuleList      | --               | --             | 3,280    |
| │    │    └─(1)ModuleList      | --               | --             | 3,280    |
| ├─(mlp)Sequential              | [696992, 60]     | [696992, 2]    | 4,377    |
| │    └─(0)Linear               | [696992, 60]     | [696992, 50]   | 3,050    |
| │    └─(1)ReLU                 | [696992, 50]     | [696992, 50]   | --       |
| │    └─(2)Dropout              | [696992, 50]     | [696992, 50]   | --       |
| │    └─(3)Linear               | [696992, 50]     | [696992, 25]   | 1,275    |
| │    └─(4)ReLU                 | [696992, 25]     | [696992, 25]   | --       |
| │    └─(5)Dropout              | [696992, 25]     | [696992, 25]   | --       |
| │    └─(6)Linear               | [696992, 25]     | [696992, 2]    | 52       |
+--------------------------------+------------------+----------------+----------+
2025-06-17 19:39:31,986 [INFO ] Val F1: 0.6737
2025-06-17 19:39:31,987 [INFO ] Val Precision: 0.8523
2025-06-17 19:39:31,987 [INFO ] Val Recall: 0.5569
2025-06-17 19:39:31,987 [INFO ] Val Auc: 0.6199
2025-06-17 19:39:31,988 [INFO ] Test F1: 0.1961
2025-06-17 19:39:31,988 [INFO ] Test Precision: 0.1360
2025-06-17 19:39:31,988 [INFO ] Test Recall: 0.3513
…
| │    │    └─(1)ModuleDict      | --               | --             | 24,320   |
| │    └─(batch_norms)ModuleList | --               | --             | 80       |
| │    │    └─(0)ModuleDict      | --               | --             | 40       |
| │    │    └─(1)ModuleDict      | --               | --             | 40       |
| │    └─(emlps)ModuleList       | --               | --             | 6,560    |
| │    │    └─(0)ModuleList      | --               | --             | 3,280    |
| │    │    └─(1)ModuleList      | --               | --             | 3,280    |
| ├─(mlp)Sequential              | [701002, 60]     | [701002, 2]    | 4,377    |
| │    └─(0)Linear               | [701002, 60]     | [701002, 50]   | 3,050    |
| │    └─(1)ReLU                 | [701002, 50]     | [701002, 50]   | --       |
| │    └─(2)Dropout              | [701002, 50]     | [701002, 50]   | --       |
| │    └─(3)Linear               | [701002, 50]     | [701002, 25]   | 1,275    |
| │    └─(4)ReLU                 | [701002, 25]     | [701002, 25]   | --       |
| │    └─(5)Dropout              | [701002, 25]     | [701002, 25]   | --       |
| │    └─(6)Linear               | [701002, 25]     | [701002, 2]    | 52       |
+--------------------------------+------------------+----------------+----------+
2025-06-17 19:46:44,344 [INFO ] Val F1: 0.6760
2025-06-17 19:46:44,345 [INFO ] Val Precision: 0.8552
2025-06-17 19:46:44,345 [INFO ] Val Recall: 0.5589
2025-06-17 19:46:44,345 [INFO ] Val Auc: 0.6196
2025-06-17 19:46:44,346 [INFO ] Test F1: 0.1952
2025-06-17 19:46:44,346 [INFO ] Test Precision: 0.1354
2025-06-17 19:46:44,346 [INFO ] Test Recall: 0.3495
…
| │    │    └─(1)ModuleDict      | --               | --             | 24,320   |
| │    └─(batch_norms)ModuleList | --               | --             | 80       |
| │    │    └─(0)ModuleDict      | --               | --             | 40       |
| │    │    └─(1)ModuleDict      | --               | --             | 40       |
| │    └─(emlps)ModuleList       | --               | --             | 6,560    |
| │    │    └─(0)ModuleList      | --               | --             | 3,280    |
| │    │    └─(1)ModuleList      | --               | --             | 3,280    |
| ├─(mlp)Sequential              | [696352, 60]     | [696352, 2]    | 4,377    |
| │    └─(0)Linear               | [696352, 60]     | [696352, 50]   | 3,050    |
| │    └─(1)ReLU                 | [696352, 50]     | [696352, 50]   | --       |
| │    └─(2)Dropout              | [696352, 50]     | [696352, 50]   | --       |
| │    └─(3)Linear               | [696352, 50]     | [696352, 25]   | 1,275    |
| │    └─(4)ReLU                 | [696352, 25]     | [696352, 25]   | --       |
| │    └─(5)Dropout              | [696352, 25]     | [696352, 25]   | --       |
| │    └─(6)Linear               | [696352, 25]     | [696352, 2]    | 52       |
+--------------------------------+------------------+----------------+----------+
2025-06-17 19:53:45,816 [INFO ] Val F1: 0.6756
2025-06-17 19:53:45,816 [INFO ] Val Precision: 0.8563
2025-06-17 19:53:45,816 [INFO ] Val Recall: 0.5579
2025-06-17 19:53:45,817 [INFO ] Val Auc: 0.6185
2025-06-17 19:53:45,817 [INFO ] Test F1: 0.1998
2025-06-17 19:53:45,817 [INFO ] Test Precision: 0.1384
2025-06-17 19:53:45,817 [INFO ] Test Recall: 0.3590
…
| │    │    └─(1)ModuleDict      | --               | --             | 24,320   |
| │    └─(batch_norms)ModuleList | --               | --             | 80       |
| │    │    └─(0)ModuleDict      | --               | --             | 40       |
| │    │    └─(1)ModuleDict      | --               | --             | 40       |
| │    └─(emlps)ModuleList       | --               | --             | 6,560    |
| │    │    └─(0)ModuleList      | --               | --             | 3,280    |
| │    │    └─(1)ModuleList      | --               | --             | 3,280    |
| ├─(mlp)Sequential              | [698667, 60]     | [698667, 2]    | 4,377    |
| │    └─(0)Linear               | [698667, 60]     | [698667, 50]   | 3,050    |
| │    └─(1)ReLU                 | [698667, 50]     | [698667, 50]   | --       |
| │    └─(2)Dropout              | [698667, 50]     | [698667, 50]   | --       |
| │    └─(3)Linear               | [698667, 50]     | [698667, 25]   | 1,275    |
| │    └─(4)ReLU                 | [698667, 25]     | [698667, 25]   | --       |
| │    └─(5)Dropout              | [698667, 25]     | [698667, 25]   | --       |
| │    └─(6)Linear               | [698667, 25]     | [698667, 2]    | 52       |
+--------------------------------+------------------+----------------+----------+
2025-06-17 20:00:34,591 [INFO ] Val F1: 0.6772
2025-06-17 20:00:34,592 [INFO ] Val Precision: 0.8544
2025-06-17 20:00:34,592 [INFO ] Val Recall: 0.5608
2025-06-17 20:00:34,592 [INFO ] Val Auc: 0.6192
2025-06-17 20:00:34,593 [INFO ] Test F1: 0.2029
2025-06-17 20:00:34,593 [INFO ] Test Precision: 0.1402
2025-06-17 20:00:34,593 [INFO ] Test Recall: 0.3673
…
| │    │    └─(1)ModuleDict      | --               | --             | 24,320   |
| │    └─(batch_norms)ModuleList | --               | --             | 80       |
| │    │    └─(0)ModuleDict      | --               | --             | 40       |
| │    │    └─(1)ModuleDict      | --               | --             | 40       |
| │    └─(emlps)ModuleList       | --               | --             | 6,560    |
| │    │    └─(0)ModuleList      | --               | --             | 3,280    |
| │    │    └─(1)ModuleList      | --               | --             | 3,280    |
| ├─(mlp)Sequential              | [700894, 60]     | [700894, 2]    | 4,377    |
| │    └─(0)Linear               | [700894, 60]     | [700894, 50]   | 3,050    |
| │    └─(1)ReLU                 | [700894, 50]     | [700894, 50]   | --       |
| │    └─(2)Dropout              | [700894, 50]     | [700894, 50]   | --       |
| │    └─(3)Linear               | [700894, 50]     | [700894, 25]   | 1,275    |
| │    └─(4)ReLU                 | [700894, 25]     | [700894, 25]   | --       |
| │    └─(5)Dropout              | [700894, 25]     | [700894, 25]   | --       |
| │    └─(6)Linear               | [700894, 25]     | [700894, 2]    | 52       |
+--------------------------------+------------------+----------------+----------+
2025-06-17 20:07:41,079 [INFO ] Val F1: 0.6783
2025-06-17 20:07:41,079 [INFO ] Val Precision: 0.8559
2025-06-17 20:07:41,080 [INFO ] Val Recall: 0.5618
2025-06-17 20:07:41,080 [INFO ] Val Auc: 0.6198
2025-06-17 20:07:41,080 [INFO ] Test F1: 0.1990
2025-06-17 20:07:41,080 [INFO ] Test Precision: 0.1382
2025-06-17 20:07:41,081 [INFO ] Test Recall: 0.3550
…
| │    │    └─(1)ModuleDict      | --               | --             | 24,320   |
| │    └─(batch_norms)ModuleList | --               | --             | 80       |
| │    │    └─(0)ModuleDict      | --               | --             | 40       |
| │    │    └─(1)ModuleDict      | --               | --             | 40       |
| │    └─(emlps)ModuleList       | --               | --             | 6,560    |
| │    │    └─(0)ModuleList      | --               | --             | 3,280    |
| │    │    └─(1)ModuleList      | --               | --             | 3,280    |
| ├─(mlp)Sequential              | [698111, 60]     | [698111, 2]    | 4,377    |
| │    └─(0)Linear               | [698111, 60]     | [698111, 50]   | 3,050    |
| │    └─(1)ReLU                 | [698111, 50]     | [698111, 50]   | --       |
| │    └─(2)Dropout              | [698111, 50]     | [698111, 50]   | --       |
| │    └─(3)Linear               | [698111, 50]     | [698111, 25]   | 1,275    |
| │    └─(4)ReLU                 | [698111, 25]     | [698111, 25]   | --       |
| │    └─(5)Dropout              | [698111, 25]     | [698111, 25]   | --       |
| │    └─(6)Linear               | [698111, 25]     | [698111, 2]    | 52       |
+--------------------------------+------------------+----------------+----------+
2025-06-17 20:14:55,229 [INFO ] Val F1: 0.6752
2025-06-17 20:14:55,230 [INFO ] Val Precision: 0.8561
2025-06-17 20:14:55,230 [INFO ] Val Recall: 0.5575
2025-06-17 20:14:55,230 [INFO ] Val Auc: 0.6199
2025-06-17 20:14:55,231 [INFO ] Test F1: 0.3563
2025-06-17 20:14:55,231 [INFO ] Test Precision: 0.3774
2025-06-17 20:14:55,231 [INFO ] Test Recall: 0.3375
…
| │    │    └─(1)ModuleDict      | --               | --             | 24,960   |
| │    └─(batch_norms)ModuleList | --               | --             | 256      |
| │    │    └─(0)ModuleDict      | --               | --             | 128      |
| │    │    └─(1)ModuleDict      | --               | --             | 128      |
| │    └─(emlps)ModuleList       | --               | --             | 66,048   |
| │    │    └─(0)ModuleList      | --               | --             | 33,024   |
| │    │    └─(1)ModuleList      | --               | --             | 33,024   |
| ├─(mlp)Sequential              | [698529, 192]    | [698529, 2]    | 10,977   |
| │    └─(0)Linear               | [698529, 192]    | [698529, 50]   | 9,650    |
| │    └─(1)ReLU                 | [698529, 50]     | [698529, 50]   | --       |
| │    └─(2)Dropout              | [698529, 50]     | [698529, 50]   | --       |
| │    └─(3)Linear               | [698529, 50]     | [698529, 25]   | 1,275    |
| │    └─(4)ReLU                 | [698529, 25]     | [698529, 25]   | --       |
| │    └─(5)Dropout              | [698529, 25]     | [698529, 25]   | --       |
| │    └─(6)Linear               | [698529, 25]     | [698529, 2]    | 52       |
+--------------------------------+------------------+----------------+----------+
2025-06-17 20:38:10,491 [INFO ] Val F1: 0.6436
2025-06-17 20:38:10,492 [INFO ] Val Precision: 0.7324
2025-06-17 20:38:10,493 [INFO ] Val Recall: 0.5739
2025-06-17 20:38:10,493 [INFO ] Val Auc: 0.5969
2025-06-17 20:38:10,493 [INFO ] Test F1: 0.1975
2025-06-17 20:38:10,493 [INFO ] Test Precision: 0.1473
2025-06-17 20:38:10,494 [INFO ] Test Recall: 0.2994
…
| │    │    └─(1)ModuleDict      | --               | --             | 24,960   |
| │    └─(batch_norms)ModuleList | --               | --             | 256      |
| │    │    └─(0)ModuleDict      | --               | --             | 128      |
| │    │    └─(1)ModuleDict      | --               | --             | 128      |
| │    └─(emlps)ModuleList       | --               | --             | 66,048   |
| │    │    └─(0)ModuleList      | --               | --             | 33,024   |
| │    │    └─(1)ModuleList      | --               | --             | 33,024   |
| ├─(mlp)Sequential              | [707390, 192]    | [707390, 2]    | 10,977   |
| │    └─(0)Linear               | [707390, 192]    | [707390, 50]   | 9,650    |
| │    └─(1)ReLU                 | [707390, 50]     | [707390, 50]   | --       |
| │    └─(2)Dropout              | [707390, 50]     | [707390, 50]   | --       |
| │    └─(3)Linear               | [707390, 50]     | [707390, 25]   | 1,275    |
| │    └─(4)ReLU                 | [707390, 25]     | [707390, 25]   | --       |
| │    └─(5)Dropout              | [707390, 25]     | [707390, 25]   | --       |
| │    └─(6)Linear               | [707390, 25]     | [707390, 2]    | 52       |
+--------------------------------+------------------+----------------+----------+
2025-06-17 20:51:13,501 [INFO ] Val F1: 0.6484
2025-06-17 20:51:13,501 [INFO ] Val Precision: 0.7922
2025-06-17 20:51:13,502 [INFO ] Val Recall: 0.5488
2025-06-17 20:51:13,502 [INFO ] Val Auc: 0.5670
2025-06-17 20:51:13,502 [INFO ] Test F1: 0.7340
2025-06-17 20:51:13,502 [INFO ] Test Precision: 0.7539
2025-06-17 20:51:13,503 [INFO ] Test Recall: 0.7151
…
| │    │    └─(1)ModuleDict      | --               | --             | 24,320   |
| │    └─(batch_norms)ModuleList | --               | --             | 80       |
| │    │    └─(0)ModuleDict      | --               | --             | 40       |
| │    │    └─(1)ModuleDict      | --               | --             | 40       |
| │    └─(emlps)ModuleList       | --               | --             | 6,560    |
| │    │    └─(0)ModuleList      | --               | --             | 3,280    |
| │    │    └─(1)ModuleList      | --               | --             | 3,280    |
| ├─(mlp)Sequential              | [705089, 60]     | [705089, 2]    | 4,377    |
| │    └─(0)Linear               | [705089, 60]     | [705089, 50]   | 3,050    |
| │    └─(1)ReLU                 | [705089, 50]     | [705089, 50]   | --       |
| │    └─(2)Dropout              | [705089, 50]     | [705089, 50]   | --       |
| │    └─(3)Linear               | [705089, 50]     | [705089, 25]   | 1,275    |
| │    └─(4)ReLU                 | [705089, 25]     | [705089, 25]   | --       |
| │    └─(5)Dropout              | [705089, 25]     | [705089, 25]   | --       |
| │    └─(6)Linear               | [705089, 25]     | [705089, 2]    | 52       |
+--------------------------------+------------------+----------------+----------+
2025-06-17 21:05:18,486 [INFO ] Val F1: 0.6760
2025-06-17 21:05:18,487 [INFO ] Val Precision: 0.8540
2025-06-17 21:05:18,487 [INFO ] Val Recall: 0.5594
2025-06-17 21:05:18,488 [INFO ] Val Auc: 0.6205
2025-06-17 21:05:18,488 [INFO ] Test F1: 0.7643
2025-06-17 21:05:18,488 [INFO ] Test Precision: 0.8423
2025-06-17 21:05:18,488 [INFO ] Test Recall: 0.6996
…
| │    │    └─(1)ModuleDict      | --               | --             | 24,960   |
| │    └─(batch_norms)ModuleList | --               | --             | 256      |
| │    │    └─(0)ModuleDict      | --               | --             | 128      |
| │    │    └─(1)ModuleDict      | --               | --             | 128      |
| │    └─(emlps)ModuleList       | --               | --             | 66,048   |
| │    │    └─(0)ModuleList      | --               | --             | 33,024   |
| │    │    └─(1)ModuleList      | --               | --             | 33,024   |
| ├─(mlp)Sequential              | [704721, 192]    | [704721, 2]    | 10,977   |
| │    └─(0)Linear               | [704721, 192]    | [704721, 50]   | 9,650    |
| │    └─(1)ReLU                 | [704721, 50]     | [704721, 50]   | --       |
| │    └─(2)Dropout              | [704721, 50]     | [704721, 50]   | --       |
| │    └─(3)Linear               | [704721, 50]     | [704721, 25]   | 1,275    |
| │    └─(4)ReLU                 | [704721, 25]     | [704721, 25]   | --       |
| │    └─(5)Dropout              | [704721, 25]     | [704721, 25]   | --       |
| │    └─(6)Linear               | [704721, 25]     | [704721, 2]    | 52       |
+--------------------------------+------------------+----------------+----------+
2025-06-17 21:13:34,143 [INFO ] Val F1: 0.6476
2025-06-17 21:13:34,144 [INFO ] Val Precision: 0.7919
2025-06-17 21:13:34,144 [INFO ] Val Recall: 0.5478
2025-06-17 21:13:34,144 [INFO ] Val Auc: 0.5661
2025-06-17 21:13:34,144 [INFO ] Test F1: 0.5036
2025-06-17 21:13:34,145 [INFO ] Test Precision: 0.8563
2025-06-17 21:13:34,145 [INFO ] Test Recall: 0.3567
…
| │    │    └─(1)ModuleDict      | --               | --             | 24,960   |
| │    └─(batch_norms)ModuleList | --               | --             | 256      |
| │    │    └─(0)ModuleDict      | --               | --             | 128      |
| │    │    └─(1)ModuleDict      | --               | --             | 128      |
| │    └─(emlps)ModuleList       | --               | --             | 66,048   |
| │    │    └─(0)ModuleList      | --               | --             | 33,024   |
| │    │    └─(1)ModuleList      | --               | --             | 33,024   |
| ├─(mlp)Sequential              | [698090, 192]    | [698090, 2]    | 10,977   |
| │    └─(0)Linear               | [698090, 192]    | [698090, 50]   | 9,650    |
| │    └─(1)ReLU                 | [698090, 50]     | [698090, 50]   | --       |
| │    └─(2)Dropout              | [698090, 50]     | [698090, 50]   | --       |
| │    └─(3)Linear               | [698090, 50]     | [698090, 25]   | 1,275    |
| │    └─(4)ReLU                 | [698090, 25]     | [698090, 25]   | --       |
| │    └─(5)Dropout              | [698090, 25]     | [698090, 25]   | --       |
| │    └─(6)Linear               | [698090, 25]     | [698090, 2]    | 52       |
+--------------------------------+------------------+----------------+----------+
2025-06-17 21:18:06,775 [INFO ] Val F1: 0.6484
2025-06-17 21:18:06,776 [INFO ] Val Precision: 0.7922
2025-06-17 21:18:06,776 [INFO ] Val Recall: 0.5488
2025-06-17 21:18:06,776 [INFO ] Val Auc: 0.5679
2025-06-17 21:18:06,777 [INFO ] Test F1: 0.4872
2025-06-17 21:18:06,777 [INFO ] Test Precision: 0.8412
2025-06-17 21:18:06,777 [INFO ] Test Recall: 0.3429
…
